actor_GW.pt (torch, 2079 bytes, 4 tensors)

fc1.weight f4 [20, 2]
0	0xbec8a40f	-0.39187667
1	0x3ea32d96	0.31870717
2	0x3f3503d8	0.7070899
3	0xbee2acc1	-0.44272426
4	0xbe938ec1	-0.2881985
5	0xbc129cb4	-0.008948494
6	0x3e0d9f51	0.13830306
7	0xbf579b24	-0.842211
8	0xbf1b6c76	-0.60712373
9	0x3f4530b2	0.7702743
10	0x3faed8d7	1.3659924
11	0xbde8b401	-0.11362458
12	0xbce78bb5	-0.02826486
13	0xbda913bf	-0.082557194
14	0xbf0d0964	-0.55092454
15	0x3dbe1c80	0.0928278
16	0xbf04a008	-0.5180669
17	0xbf3208b4	-0.6954453
18	0xbf261872	-0.6488105
19	0x3f62e22b	0.88626355
20	0x3e422a1a	0.18961373
21	0x3e8d688a	0.2761882
22	0xbcfa8f2a	-0.030585844
23	0x3eca7305	0.39540878
24	0x3e1450e5	0.14483984
25	0x3c4d8392	0.012543576
26	0x3a0d6989	0.0005394449
27	0xbe9bc1d4	-0.30421317
28	0xbeb4bdc1	-0.3530102
29	0x3f0e524a	0.55594313
30	0x3f78d14a	0.9719435
31	0xbf1e60d3	-0.6186649
32	0xbef107c9	-0.47076252
33	0x3f23ba41	0.63956076
34	0x3e41877d	0.18899341
35	0xbee4e974	-0.4470936
36	0xbe9a25fc	-0.30107105
37	0xbf21d935	-0.63222057
38	0x3f002450	0.5005541
39	0xbea8e196	-0.32984608

fc1.bias f4 [20]
0	0xbeeafd33	-0.458963
1	0x3f40e49e	0.7534884
2	0x3faab5bb	1.333671
3	0x3f6a2e5a	0.91476977
4	0x3f2aafcf	0.6667451
5	0xbfd81b40	-1.6883316
6	0x3fa98c75	1.3245989
7	0xbe4fcb7e	-0.2029247
8	0x3dd5086f	0.10401999
9	0x3e942caf	0.2894034
10	0xbdcaa254	-0.09894243
11	0x3ec2120f	0.37904403
12	0xbf1f3ac8	-0.6219907
13	0x3efadb7a	0.48995572
14	0x3cb25416	0.02176861
15	0xbf033aed	-0.5126179
16	0x3e8147a0	0.25249958
17	0xbe9b75bb	-0.3036326
18	0x3e567a57	0.20945106
19	0xbee89f48	-0.45434022

fc5.weight f4 [4, 20]
0	0xbd0d2848	-0.034462243
1	0x3f1fbf19	0.62400967
2	0x3f40ab72	0.75261605
3	0x3f490a24	0.785311
4	0x3f275f01	0.6537934
5	0xbf5c8433	-0.8613922
6	0x3f80f8d4	1.0075936
7	0xbdbf14de	-0.09330152
8	0x3e5a4ffa	0.21319571
9	0x3f1f5028	0.62231684
10	0xbc441993	-0.011968988
11	0x3ebed7bc	0.37273967
12	0xbe1275f6	-0.14302811
13	0x3e89c97d	0.26911536
14	0x3e754958	0.2395376
15	0xbe4a55cb	-0.1975929
16	0x3ed5f519	0.41788557
17	0xbe2d4317	-0.16920124
18	0x3deb874a	0.11500414
19	0xbe945285	-0.28969207
20	0x3b01ea4e	0.0019823494
21	0xbefa706c	-0.48913896
22	0xbdba660a	-0.09101494
23	0x3d039ac3	0.032130014
24	0xbc718096	-0.01474013
25	0xbee599f1	-0.4484401
26	0xbe793786	-0.24337587
27	0xbe2b2e0f	-0.16716789
28	0x3e59265b	0.21206038
29	0xbe184fda	-0.14874211
30	0x3c081f1d	0.008308199
31	0xbebce574	-0.3689381
32	0x3cf41a7f	0.02979779
33	0xbe42b4d8	-0.19014299
34	0xbe53a1d0	-0.20667195
35	0xbe799ac1	-0.2437544
36	0x3e2b7697	0.16744457
37	0xbde4e60f	-0.11176693
38	0x3e3f3f95	0.18676598
39	0x3dd22857	0.102616005
40	0x3cc79512	0.024363074
41	0x3ee08367	0.43850252
42	0xbf1fd1b3	-0.6242935
43	0xbea28555	-0.3174235
44	0xbef67fe7	-0.48144457
45	0x3fae1686	1.3600624
46	0xbdf5bb7f	-0.11998653
47	0x39ce62d7	0.00039365023
48	0xbe5c15b7	-0.21492659
49	0xbefc11cb	-0.49232325
50	0x3e635d93	0.22203664
51	0xbd096b3d	-0.033549536
52	0x3e03c268	0.12867129
53	0xbe998b7a	-0.29989225
54	0xbeda2590	-0.42606783
55	0x3f578813	0.8419201
56	0xbeea0ff1	-0.45715287
57	0xbe0fcdd3	-0.1404336
58	0xbe421bb0	-0.18955874
59	0x3e31b9ec	0.1735608
60	0x3d821102	0.063509
61	0xbf088f5e	-0.5334376
62	0x3c8dc431	0.017305465
63	0xbdf5ecfd	-0.120080926
64	0xbd3b98b6	-0.045799933
65	0xbe323a94	-0.17405158
66	0xbef31a72	-0.47481114
67	0x3dbabf4b	0.091185175
68	0xbe0bdbe8	-0.13658106
69	0x3e0618fb	0.13095467
70	0xbea835ed	-0.32853642
71	0xbe1b0f69	-0.15142597
72	0xbe0e21dd	-0.13880105
73	0x3da1f797	0.07908552
74	0xbde41fc2	-0.1113887
75	0xbe26d0e5	-0.16290624
76	0x3e494e5c	0.19658798
77	0x3c9dc7d4	0.019260325
78	0x3e2369e4	0.15958363
79	0x3dd04a7c	0.10170457

fc5.bias f4 [4]
0	0x3fc13ab4	1.509604
1	0xbeff2c25	-0.49838367
2	0xbf4a7168	-0.79079294
3	0xbe8fe80b	-0.28106722
