actor_LL.pt (torch, 679695 bytes, 8 tensors)

fc1.weight f4 [512, 8]
0.21639864 0.18800731 0.3296117 0.16183005 -0.10606655 -0.2714304 -0.17246725 -0.34564027
0.26505604 -0.30061436 -0.17850173 -0.31506768 -0.41828236 -0.19497286 0.27680779 -0.1797395
-0.03543365 -0.2044081 -0.21987262 0.32397866 0.17707701 0.1813026 -0.17590083 -0.14875682
-0.014276035 0.17787665 -0.05000339 -0.20379424 -0.30124885 -0.12498599 0.2921031 -0.29603583
0.010489359 -0.36501428 -0.18894133 -0.3785639 0.10893181 0.057344344 -0.26417312 0.013884199
-0.4709733 -0.07606525 0.2106289 0.3068283 0.4181441 0.22074507 -0.19486372 0.37874442
-0.06529035 0.35228956 -0.37346172 -0.17120133 0.46858737 0.31844464 -0.28316405 -0.37585574
-0.3116867 0.27360418 -0.34717262 0.20736025 0.042170987 0.17341316 -0.045561574 0.25826168
0.0047109737 -0.19310513 0.26364073 -0.50462216 -0.13465048 -0.033375517 -0.07379376 -0.22855383
0.15593608 -0.11155465 0.30831313 -0.3789674 -0.31764153 0.14276633 0.30236077 0.11237895
-0.25403374 -0.04857797 -0.1508552 0.33491138 -0.20705514 0.012529419 -0.20862867 0.32229826
0.0986691 -0.2580032 0.0041724327 0.1120441 -0.27800712 0.13674697 -0.06951368 0.18509577
-0.47338828 0.058568712 0.30062893 0.06705259 0.2780083 0.24650355 0.399466 -0.115883425
-0.3452594 -0.2944629 -0.3224075 -0.16314013 0.27723786 -0.22725268 -0.25970283 0.3044352
0.10049271 0.03536393 0.18879016 -0.13018921 0.14194743 -0.3081133 0.36318114 0.13736917
-0.15171468 0.29931667 -0.34594733 -0.004126796 0.30328798 0.28199092 0.3516573 0.23480885
0.2516592 -0.3831521 -0.24909735 0.12596482 0.35444936 -0.1615935 -0.28593948 -0.29678342
0.31683177 0.06883988 0.39868167 0.2280236 0.024424791 -0.06747914 0.22404337 0.22552697
0.08286064 0.023567557 0.123783916 0.09727056 0.31126514 0.102147594 -0.35878477 -0.18921807
0.17787927 -0.1548914 0.16625978 0.27439255 0.17135383 0.23653278 -0.08714378 0.1854739
0.17219853 0.09155486 -0.3086608 -0.18147668 -0.2892733 0.010455137 -0.3908255 -0.23306535
-0.20183176 -0.29667282 -0.16063203 -0.1354419 0.14288814 0.2282861 -0.2821349 0.08671977
0.22335802 -0.30297667 0.24720532 0.19255544 -0.24776489 0.17926227 -0.071422815 -0.1060778
-0.09198459 -0.3313973 -0.25118503 -0.39441603 0.26328564 0.18063657 0.2442593 -0.0037512162
0.0047442554 0.16637559 0.30812335 0.15389082 -0.4131784 -0.00089230324 0.29004732 -0.2391316
-0.20138492 -0.4030387 -0.2086105 -0.23519951 -0.25876373 0.25957865 0.08935009 -0.006793303
-0.26489738 0.071474515 -0.15454994 0.40748334 0.009072932 -0.28334713 -0.094913244 0.22859836
-0.09418508 0.13517205 0.16704108 -0.14086568 -0.21044451 -0.09856164 0.20688511 -0.08590726
0.23374529 -0.13711117 0.31191152 0.24616185 0.23287822 0.22836111 -0.11975013 0.21225333
-0.38968092 -0.38492638 0.09030862 -0.23872876 0.015381605 -0.19096504 -0.326464 -0.003640358
-0.09779532 0.17827116 -0.1769087 0.1438018 0.21045181 -0.14506023 -0.14351662 0.09053931
0.19567955 -0.17806554 -0.26979977 0.05732525 -0.26267397 0.432142 0.0005797256 0.07657815
00000000: 9b97 5d3e fd84 403e ddc2 a83e c7b6 253e
00000010: 6b39 d9bd edf8 8abe 419b 30be c3f7 b0be
00000020: 6db5 873e 20ea 99be 28c9 36be 8d50 a1be
00000030: 1b29 d6be f7a6 47be c0b9 8d3e a20d 38be
00000040: e022 11bd 5b50 51be 4a26 61be 88e0 a53e
00000050: ad53 353e 64a7 393e 591f 34be b553 18be
00000060: 08e6 69bc 4c25 363e 5bd0 4cbd 70af 50be
00000070: 4a3d 9abe a8f8 ffbd 8a8e 953e 0292 97be
00000080: 8fdb 2b3c 27e3 babe d679 41be 21d3 c1be
00000090: a417 df3d e7e1 6a3d b341 87be 8d7a 633c
000000a0: 6a23 f1be 19c8 9bbd 1aaf 573e 9918 9d3e
000000b0: fc16 d63e ff0a 623e 5b8a 47be caea c13e
000000c0: f2b6 85bd 4c5f b43e 6036 bfbe 674f 2fbe
000000d0: afea ef3e 2d0b a33e e1fa 90be 2a70 c0be
000000e0: 6695 9fbe d915 8c3e 9cc0 b1be 3f56 543e
000000f0: 7cbb 2c3d 3893 313e c69e 3abd e03a 843e
00000100: 835e 9a3b 5abd 45be ebfb 863e eb2e 01bf
00000110: d1e1 09be c4b4 08bd 2f21 97bd 040a 6abe
00000120: b5ad 1f3e c476 e4bd 38db 9d3e 0408 c2be
00000130: e9a1 a2be 5631 123e 08cf 9a3e ef26 e63d
00000140: b610 82be b2f9 46bd c979 1abe 8179 ab3e
00000150: 4306 54be 3148 4d3c c1a2 55be 4704 a53e
00000160: 0613 ca3d ff18 84be e7b8 883b 6177 e53d
00000170: f356 8ebe 6607 0c3e 305d 8ebd bf89 3d3e
00000180: f35f f2be bfe5 6f3d 09ec 993e de52 893d
00000190: 1b57 8e3e 6d6b 7c3e cf86 cc3e 4a54 edbd
000001a0: d7c5 b0be d7c3 96be 9912 a5be 350e 27be
000001b0: 1ff2 8d3e edb4 68be c5f7 84be eede 9b3e
000001c0: 1fcf cd3d c5d9 103d 3552 413e 5250 05be
000001d0: ab5a 113e 07c1 9dbe e1f2 b93e 81aa 0c3e
000001e0: 185b 1bbe 0940 993e 0220 b1be 133a 87bb
000001f0: 9048 9b3e 1d61 903e 6d0c b43e bb71 703e
00000200: 7ad9 803e 832c c4be 6013 7fbe ecfc 003e
00000210: 637a b53e c478 25be a966 92be fff3 97be
00000220: c637 a23e ecfb 8c3d 0120 cc3e 057f 693e
00000230: 8016 c83c 8132 8abd a06b 653e 8bf0 663e
00000240: d7b2 a93d c010 c13c 6c82 fd3d ca35 c73d
00000250: 255e 9f3e c232 d13d a3b2 b7be 62c2 41be
00000260: fc25 363e da9b 1ebe 0140 2a3e 2e7d 8c3e
00000270: 6177 2f3e a635 723e 7078 b2bd dfec 3d3e
00000280: d054 303e 1d81 bb3d ca08 9ebe 06d5 39be
00000290: a11b 94be 064c 2b3c 481a c8be afa8 6ebe
000002a0: fcac 4ebe 80e5 97be b97c 24be 48b1 0abe
000002b0: 4551 123e d5c3 693e fc73 90be 239a b13d
000002c0: f7b7 643e c21f 9bbe 6423 7d3e 412d 453e
000002d0: 14b6 7dbe 8790 373e 2046 92bd 513f d9bd
000002e0: 6b62 bcbd e8ac a9be 539b 80be e6f0 c9be
000002f0: 60cd 863e cbf8 383e 1c1f 7a3e f7d6 75bb
00000300: b375 9b3b 5d5e 2a3e 58c2 9d3e 8e95 1d3e
00000310: 1f8c d3be 75e9 69ba 1581 943e eade 74be
00000320: d937 4ebe 175b cebe fe9d 55be 24d8 70be
00000330: ae7c 84be 7ee7 843e 2efd b63d 5b9a debb
00000340: a1a0 87be 3b61 923d 5742 1ebe a8a1 d03e
00000350: a3a6 143c e012 91be e061 c2bd b015 6a3e
00000360: 1be4 c0bd 8b6a 0a3e d10c 2b3e 183f 10be
00000370: c47e 57be afda c9bd b1d9 533e 25f0 afbd
00000380: ed5a 6f3e df66 0cbe deb2 9f3e da11 7c3e
00000390: a177 6e3e 7fd7 693e 8e3f f5bd f058 593e
000003a0: 4284 c7be 1215 c5be baf3 b83d 5075 74be
000003b0: 2103 7c3c 578c 43be 4a26 a7be 1393 6ebb
000003c0: ea48 c8bd b78c 363e 8e27 35be c740 133e
000003d0: ae80 573e ab8a 14be 05f6 12be ac6c b93d
000003e0: 3860 483e d056 36be 3223 8abe e2cd 6a3d
000003f0: 347d 86be b741 dd3e baf8 173a 01d5 9c3d

fc1.bias f4 [512]
0.1442434 0.30079567 -0.23222843 0.13312548 0.11458974 0.11384565 -0.22758837 0.014449678
0.1016101 0.024508221 -0.19541939 -0.018320523 -0.067633085 -0.19481891 -0.29530993 -0.009110483
-0.23485321 0.16523458 -0.036300614 -0.2457897 -0.10712297 0.21269143 0.28606242 0.22750063
-0.27985886 -0.15958495 -0.2423492 -0.05021481 -0.26597148 -0.10323075 0.19457941 0.24086075
0.1554767 -0.06858506 -0.14930002 0.17637528 -0.3631612 0.122425534 0.15306939 0.11885421
-0.027097117 0.19209576 -0.15241118 -0.12805763 0.13820648 -0.2313634 -0.24945617 -0.24557872
-0.16358365 0.11367085 0.17942914 -0.23499343 0.12555635 0.04966478 0.045356005 0.2347711
-0.08419589 -0.26762977 0.27994236 0.03168319 -0.3056176 -0.09376583 -0.0051311627 -0.13813443
-0.21618697 0.29569328 -0.36981362 0.34490252 0.1943489 0.17435095 0.04401141 0.023060663
-0.37486136 -0.052624326 0.067088604 -0.28230307 -0.2657148 -0.37302703 -0.23525377 -0.2430112
0.19958459 0.06864002 0.073679216 -0.08707955 0.16738588 0.21057028 -0.25160906 -0.28780773
-0.2416852 0.21777023 0.14916842 0.21370097 0.26525307 -0.20981294 -0.34437558 0.17343259
-0.2993614 -0.100667626 0.10238563 0.21187039 0.14358011 0.07682395 0.07625685 0.20467998
-0.37032443 0.261569 -0.27132654 -0.14552934 -0.26402405 0.1085744 0.08808067 0.010615048
0.12701823 0.1379722 -0.35262585 0.031692415 -0.34697393 0.054498103 -0.2901734 0.004526181
0.13364054 -0.061969668 -0.09031804 0.11801819 -0.27135628 0.12223843 0.19801483 -0.239661
-0.1631503 0.12369779 -0.120654464 -0.2707189 0.014917901 -0.1837746 0.21024519 0.2699349
-0.083247386 0.08651869 -0.20367287 -0.13440198 0.22550663 -0.009246474 -0.33329767 0.13046363
0.07893783 -0.034750156 -0.3013338 0.0723535 -0.012232847 0.2666403 0.17792417 0.23198888
0.052412417 -0.12928772 0.30451187 0.34012094 0.2260064 0.05725514 0.060379148 0.0031428738
0.15368326 0.0035480806 0.04090894 0.07384435 -0.011936267 0.034744695 0.018619033 0.16088185
0.038437057 0.25742957 0.043458533 0.24211936 0.026409162 0.2118866 0.24718401 -0.2993097
0.19532138 -0.18639004 0.08792905 0.18789183 0.07559882 -0.24312085 0.15448432 -0.37259594
-0.09807215 -0.22887288 -0.32981253 -0.02747634 0.0072222385 -0.23329322 -0.14799084 -0.16275196
0.16193485 0.2944222 -0.010844229 -0.21457238 -0.27916038 0.11945789 -0.22832075 -0.17433292
0.07333651 0.012739135 -0.27736998 0.2794966 0.3450672 -0.11786704 -0.339959 0.2706452
0.2845466 0.057276864 -0.037531245 0.1739996 -0.007433757 0.026918579 0.3055928 0.24151565
0.052808847 -0.35986066 -0.18904404 0.0048217853 -0.2763083 -0.03853238 -0.19348776 0.13314432
0.08656913 -0.24656197 -0.32539964 0.06483837 0.2540086 -0.24545789 -0.26289785 -0.24125503
-0.39543173 0.028671267 -0.09428035 -0.28146067 -0.10899048 0.19989614 0.034648877 -0.1576611
-0.07875537 0.2704729 -0.26417693 -0.22750284 -0.22958307 -0.27139288 0.10739422 -0.18930754
0.20850557 0.2617555 -0.14455453 -0.28937802 0.20737594 0.28516608 -0.17277327 -0.0779606
00000000: 8bb4 133e e401 9a3e 4acd 6dbe 0c52 083e
00000010: 07ae ea3d e827 e93d ed0c 69be 58be 6c3c
00000020: f518 d03d 77c5 c83c 051c 48be ec14 96bc
00000030: 3783 8abd 9c7e 47be dd32 97be 2344 15bc
00000040: 5c7d 70be 4133 293e f4af 14bd 4cb0 7bbe
00000050: 4a63 dbbd c8cb 593e c676 923e edf5 683e
00000060: a949 8fbe 3d6a 23be 642a 78be 0bae 4dbd
00000070: 6a2d 88be a56a d3bd d33f 473e 33a4 763e
00000080: 4935 1f3e 5376 8cbd 1be2 18be b99b 343e
00000090: 44f0 b9be 3dba fa3d 39be 1c3e d669 f33d
000000a0: c6fa ddbc c0b4 443e ad11 1cbe 8a21 03be
000000b0: 0086 0d3e 87ea 6cbe 7071 7fbe fd78 7bbe
000000c0: 7982 27be 43cc e83d 46bc 373e 1ea2 70be
000000d0: d891 003e 4c6d 4b3d 38c7 393d d667 703e
000000e0: e56e acbd c506 89be 9b54 8f3e 3cc6 013d
000000f0: e979 9cbe 4d08 c0bd 5023 a8bb 1d73 0dbe
00000100: 1e60 5dbe 1c65 973e 3658 bdbe 1097 b03e
00000110: 6603 473e 0e89 323e 4f45 343d b7e9 bc3c
00000120: d4ed bfbe 9b8c 57bd c065 893d 078a 90be
00000130: c50b 88be 66fd bebe 5de6 70be eed7 78be
00000140: e75f 4c3e 2493 8c3d 21e5 963d c356 b2bd
00000150: 3467 2b3e bc9f 573e e7d2 80be 895b 93be
00000160: 537c 77be 29ff 5e3e 9bbf 183e 6dd4 5a3e
00000170: 40cf 873e 34d9 56be ff51 b0be 5098 313e
00000180: e645 99be d42a cebd 8faf d13d 8df4 583e
00000190: aa06 133e e055 9d3d 8d2c 9c3d a197 513e
000001a0: 2a9b bdbe 5fec 853e 50eb 8abe a505 15be
000001b0: 292e 87be 415c de3d a363 b43d bdea 2d3c
000001c0: 1111 023e 9648 0d3e 608b b4be e8cf 013d
000001d0: 91a6 b1be 6739 5f3d 9c91 94be 5c50 943b
000001e0: 11d9 083e e8d3 7dbd aaf8 b8bd 85b3 f13d
000001f0: 36ef 8abe 2458 fa3d 66c4 4a3e b169 75be
00000200: df10 27be 4455 fd3d b019 f7bd ab9b 8abe
00000210: 366a 743c 692f 3cbe 844a 573e e834 8a3e
00000220: 9b7d aabd b630 b13d 9f8f 50be aca0 09be
00000230: 36eb 663e 867e 17bc fea5 aabe 4298 053e
00000240: 28aa a13d 2e56 0ebd 6d48 9abe 122e 943d
00000250: 476c 48bc 1485 883e c131 363e 7e8e 6d3e
00000260: 67ae 563d 0064 04be fbe8 9b3e 5524 ae3e
00000270: 396e 673e 5e84 6a3d 2050 773d acf8 4d3b
00000280: 255f 1d3e ea86 683b 2290 273d b53b 973d
00000290: 5590 43bc 7450 0e3d f186 983c 36be 243e
000002a0: 2d70 1d3d cfcd 833e 9301 323d 23ee 773e
000002b0: 0758 d83c cdf8 583e ce1d 7d3e 1f3f 99be
000002c0: 5402 483e 08dd 3ebe 2514 b43d b766 403e
000002d0: 8ed3 9a3d acf4 78be 2331 1e3e e5c4 bebe
000002e0: 0dda c8bd a75d 6abe 30dd a8be 1016 e1bc
000002f0: 87a8 ec3b 6be4 6ebe e98a 17be 73a8 26be
00000300: 40d2 253e 82be 963e feab 31bc ddb8 5bbe
00000310: 1cee 8ebe 57a6 f43d eacc 69be 5484 32be
00000320: 7431 963d ceb7 503c 7003 8ebe 2e1a 8f3e
00000330: a6ac b03e 4664 f1bd 1b0f aebe 0292 8a3e
00000340: 18b0 913e 259b 6a3d 5dba 19bd f32c 323e
00000350: e096 f3bb 5a84 dc3c a976 9c3e e14f 773e
00000360: 174e 583d a83f b8be c394 41be 1100 9e3b
00000370: 4878 8dbe 21d4 1dbd a821 46be fc56 083e
00000380: 284b b13d be7a 7cbe c89a a6be fbc9 843d
00000390: 6a0d 823e 5059 7bbe 8c9a 86be 8f0b 77be
000003a0: 0776 cabe 01e0 ea3c 0e16 c1bd 9d1b 90be
000003b0: 6736 dfbd 93b1 4c3e fbeb 0d3d e971 21be
000003c0: 7f4a a1bd 6d7b 8a3e 3342 87be 81f6 68be
000003d0: d317 6bbe 02f4 8abe 80f1 db3d d6d9 41be
000003e0: 7c82 553e d104 863e 1a06 14be 5b29 94be
000003f0: 5c5a 543e 4a01 923e 7aeb 30be cfa9 9fbd

fc2.weight f4 [256, 512]
0.00933113 -0.034081362 -0.03588043 -0.0096200975 -0.046178646 0.03522396 0.02835234 -0.0011995762
0.0044742236 0.012352422 0.0034713708 -0.04304274 -0.021209696 0.0061684777 -0.0020411569 0.0036333567
-0.043882962 0.011879359 -0.003127843 0.010206622 -0.011558588 -0.033521347 -0.0011126918 -0.039121028
0.025121188 0.015453569 0.024962064 -0.010062971 0.025087675 -0.0031470973 0.036084622 0.016136983
0.021058355 -0.016291238 -0.0214055 0.038762305 -0.046210747 0.011141078 -0.043093987 -0.031302404
0.029223226 -0.029360203 -0.034526832 -0.022545297 -0.019760914 0.0006477493 0.010937788 -0.012269702
0.034329116 -0.060566142 -0.022417199 0.040573053 -0.015333906 -0.041278042 -0.0024787083 -0.040585607
-0.021879071 0.011968408 0.037757173 -0.019233426 0.022555888 -0.012334893 -0.034375947 -0.03089416
-0.035665482 -0.035871767 -0.00074198155 0.0029947206 -0.02789544 0.016443755 0.024453944 -0.043465532
-0.0145380795 -0.0066873496 0.02356876 -0.017849064 -0.018381607 0.020024052 -0.033239476 0.029451054
-0.0022917632 -0.03071759 0.027025748 0.025731497 0.022704255 0.020481382 0.011976698 0.03167354
-0.053784434 0.018910171 0.010514209 0.00732496 -0.03708796 -0.03520445 -0.024582263 0.034458723
-0.020614875 -0.033065893 -0.0057098954 0.024245994 0.022273961 0.008455147 -0.017115997 -0.0033744075
0.01981728 -0.03988816 0.032286428 -0.016161198 -0.010974404 -0.014132011 -0.00459978 -0.045404002
-0.012008787 -0.024111625 0.019537672 -0.0024843975 0.010211092 -0.013386946 0.018013611 -0.016297452
0.021831589 0.019235706 0.020268623 -0.016284669 -0.012495134 -0.009811584 -0.038157124 -0.030135335
-0.010658126 -0.038699675 0.021879712 0.0075324913 0.041334454 -0.033355463 -0.02355998 -0.015401816
-0.042889114 0.037352268 -0.008027723 0.035434738 -0.025878223 -0.032590494 0.020818625 -0.015142102
-0.02192823 0.022702556 0.035023235 -0.023515701 0.0011649078 -0.023355551 0.015335759 0.01604386
-0.016652986 -0.0063712746 -0.030446462 0.009262953 0.0267731 0.018572217 0.00066179415 0.027943432
-0.0026827035 -0.035517495 -0.046151634 0.008781926 0.02223723 -0.01529345 -0.047776148 -0.045971192
0.016717982 0.003501362 0.032088734 0.03303338 0.009676934 -0.036007505 0.0012910501 0.0260097
0.024749178 -0.0029205466 -0.006105925 -0.04112256 -0.039481502 -0.0018131458 -0.015274214 -0.0033921562
0.0027063424 0.048805665 0.023291763 0.020446155 0.032350354 -0.0041719247 -0.024391202 0.05729823
-0.049424224 0.026141584 -0.0066046296 -0.00077145547 -0.022427661 0.025047937 -0.0023382902 0.0054994375
-0.00033191103 -0.020154584 0.038384378 -0.029349858 0.0020017298 0.037177842 0.015339905 -0.002538058
0.004630804 0.013757899 0.024962876 -0.028172784 -0.009079605 -0.039182298 0.0071562226 -0.044091478
-0.027831493 -0.010127131 0.0066082766 0.03214519 -0.04489955 0.022267425 -0.01212136 -0.022500118
0.027482245 -0.04547586 0.03411231 -0.01774022 0.0005352344 -0.026305946 -0.024005644 -0.039586008
-0.005726289 0.00972964 -0.043819368 0.028250549 0.03576533 0.048642956 -0.04160586 0.026935644
-0.030649357 -0.034116965 0.0154056735 0.010080594 -0.036925156 -0.011946146 -0.014105556 0.028673429
-0.024062699 -0.020657886 0.042248104 -0.0051408336 -0.05026468 -0.04232906 0.00218708 0.014060974
00000000: 99e1 183c e698 0bbd 5cf7 12bd 9d9d 1dbc
00000010: d225 3dbd 0047 103d 2b43 e83c 193b 9dba
00000020: 829c 923b d061 4a3c f07f 633b 964d 30bd
00000030: f5bf adbc f120 ca3b eec4 05bb 9c1d 6e3b
00000040: 9fbe 33bd a5a1 423c 7ffc 4cbb ad39 273c
00000050: 3b60 3dbc ae4d 09bd bed7 91ba 5f3d 20bd
00000060: f3ca cd3c f730 7d3c 3e7d cc3c 29df 24bc
00000070: ab84 cd3c 883f 4ebb 78cd 133d b531 843c
00000080: 9282 ac3c 3475 85bc 965a afbc 39c5 1e3d
00000090: 7b47 3dbd 1189 363c 5283 30bd f336 00bd
000000a0: 8c65 ef3c cf84 f0bc 026c 0dbd eab0 b8bc
000000b0: a4e1 a1bc b8cd 293a 6834 333c dc06 49bc
000000c0: b09c 0c3d 3414 78bd 46a4 b7bc ee2f 263d
000000d0: 103b 7bbc 2a13 29bd d371 22bb 183d 26bd
000000e0: bd3b b3bc 2417 443c 44a7 1a3d 6b8f 9dbc
000000f0: 20c7 b83c 4b18 4abc cbcd 0cbd c015 fdbc
00000100: f815 12bd 46ee 12bd 8a81 42ba 1343 443b
00000110: fa84 e4bc 0eb5 863c a353 c83c ea08 32bd
00000120: 2031 6ebc 8e21 dbbb 4613 c13c 3338 92bc
00000130: 0695 96bc 7b09 a43c 1e26 08bd 5643 f13c
00000140: 6831 16bb 75a3 fbbc 1a65 dd3c dcca d23c
00000150: 46fe b93c 92c8 a73c ea39 443c 1dbc 013d
00000160: 114d 5cbd 81e9 9a3c ca43 2c3c 3806 f03b
00000170: 8be9 17bd 8b32 10bd be60 c9bc 9724 0d3d
00000180: 87e0 a8bc 1a70 07bd 131a bbbb 899f c63c
00000190: e277 b63c 7587 0a3c d936 8cbc 2a25 5dbb
000001a0: d957 a23c c461 23bd c63e 043d 7d64 84bc
000001b0: fdcd 33bc f389 67bc c0b9 96bb 8cf9 39bd
000001c0: 81c0 44bc be85 c5bc 780d a03c 46d1 22bb
000001d0: 6d4c 273c ec54 5bbc 4891 933c 3c82 85bc
000001e0: 29d8 b23c 3394 9d3c 620a a63c 6d67 85bc
000001f0: 64b8 4cbc c4c0 20bc a54a 1cbd 61de f6bc
00000200: 6c9f 2ebc 8d83 1ebd 153d b33c 1ed3 f63b
00000210: 514e 293d bd9f 08bd dc00 c1bc e657 7cbc
00000220: 7fac 2fbd b1fe 183d b686 03bc 0424 113d
00000230: 91fe d3bc 9c7d 05bd d28b aa3c 9416 78bc
00000240: d5a2 b3bc b6fa b93c 8674 0f3d 00a4 c0bc
00000250: d2af 983a 2454 bfbc d642 7b3c 6a6e 833c
00000260: d86b 88bc 20c6 d0bb dc6a f9bc a4c3 173c
00000270: 4353 db3c c324 983c 417c 2d3a a0e9 e43c
00000280: 4cd0 2fbb cb7a 11bd 7f09 3dbd 11e2 0f3c
00000290: da2a b63c 6191 7abc ecb0 43bd 4a4c 3cbd
000002a0: 26f4 883c 1b77 653b 7a6f 033d 024e 073d
000002b0: 018c 1e3c 9b7c 13bd 7438 a93a 4b12 d53c
000002c0: cabe ca3c a466 3fbb 3614 c8bb 2170 28bd
000002d0: 5bb7 21bd 14a7 edba b240 7abc f04e 5ebb
000002e0: e45c 313b 73e8 473d 5ece be3c b27e a73c
000002f0: ce81 043d a4b4 88bb 0fd0 c7bc 8cb1 6a3d
00000300: 0e71 4abd e026 d63c a66b d8bb 803b 4aba
00000310: 37ba b7bc 5531 cd3c 003e 19bb a034 b43b
00000320: 5804 aeb9 3a1b a5bc f038 1d3d 1d6f f0bc
00000330: 742f 033b cb47 183d 3a54 7b3c 8c55 26bb
00000340: 00be 973b d068 613c f27e cc3c 9cca e6bc
00000350: a0c2 14bc 9e7d 20bd bf7e ea3b 4499 34bd
00000360: dffe e3bc 44ec 25bc 3e8a d83b adaa 033d
00000370: 97e8 37bd 2d6a b63c ab98 46bc 2b52 b8bc
00000380: 7222 e13c e544 3abd 59b9 0b3d f053 91bc
00000390: f94e 0c3a 917f d7bc 7ca7 c4bc f024 22bd
000003a0: 98a3 bbbb 1169 1f3c f07b 33bd b26d e73c
000003b0: ab7e 123d d63d 473d e86a 2abd 24a8 dc3c
000003c0: 5c14 fbbc 3bbe 0bbd 1468 7c3c 1329 253c
000003d0: d53e 17bd c5b9 43bc fd1a 67bc 8ae4 ea3c
000003e0: 231f c5bc ba3a a9bc 590c 2d3d 7074 a8bb
000003f0: 56e2 4dbd 3d61 2dbd 1d55 0f3b 0060 663c

fc2.bias f4 [256]
0.03640701 -0.024772935 0.005874128 -0.021859141 0.018170217 -0.052017204 -0.03980867 0.0041893967
0.049358938 -0.025789073 -0.020683212 3.4461693e-05 0.030807216 0.058723576 0.037693176 0.054594494
-0.063017674 0.024785858 0.0007181897 -0.024135895 0.061608925 -0.021902425 -0.039673313 -0.027657446
-0.003976006 -0.023050392 -0.07035911 -0.026795862 -0.05525604 -0.012820928 -0.037575793 -0.031766392
0.020621309 0.01663002 -0.031129213 -0.043433923 0.030841915 0.016459325 -0.012694406 0.034512326
-0.026028844 0.03008674 0.0005690491 -0.00020474326 -0.012779805 0.028011313 -0.056083556 -0.0437427
0.014791596 0.02317722 0.011092997 0.0026642673 -0.047588207 0.017486272 0.005454423 -0.03282469
0.02038788 0.013611524 0.048113406 0.012497231 -0.03692487 -0.023798067 -0.0025875126 0.03505112
-0.027206324 -0.04598174 0.026157986 0.014851467 -0.042322163 -0.0129831275 0.026916096 -0.0063776965
0.009081828 -0.026292928 -0.0015703777 -0.023342362 0.026976466 0.026373148 0.0063542244 -0.0023211557
0.0028979564 0.028983032 0.040594026 -0.029745841 0.010609272 -0.06874012 0.01941907 0.07106894
0.032526825 0.026203217 0.037436534 0.04988146 -0.025291707 -0.044653706 -0.021648768 -0.037517466
-0.03265568 -0.05540371 0.0020962455 -0.026717817 0.025829682 0.013735294 0.028406445 0.047207367
0.039389998 -0.016716808 0.0055813505 -0.03256949 0.029054813 -0.021900048 0.0040218793 0.04095674
0.05292318 -0.07447903 -0.015840478 -0.029635051 -0.023419823 -0.045287922 0.017892525 0.010927376
0.009650686 -0.048541036 -0.012556987 0.017637577 -0.02376013 -0.021112503 -0.0017577374 0.056198016
-0.014023606 -0.015689269 0.038251095 -0.026884839 -0.0008978819 -0.034107327 -0.014230565 0.0502299
-0.02355166 -0.0142185 -0.014816142 0.012265974 -0.014018238 0.049431782 -0.04149454 -0.017913647
0.039023217 -0.0073092896 -0.020162256 -0.04329186 -0.003585526 0.05259203 -0.004953669 -0.029465158
0.04530547 -0.021149958 -0.04751328 -0.010345279 -0.0012948248 -0.03250019 0.0071739485 -0.063378975
0.008832089 -0.0135108875 0.022947578 -0.021092135 0.03850497 0.050634984 -0.014957683 0.024153586
-0.015774615 0.0406404 -0.0308807 0.038803503 0.0017516282 0.01131542 -0.029386884 -0.016182357
-0.0042151567 -0.032328025 -0.012782953 -0.0023524615 0.021085912 -0.015183653 -0.030975739 0.018622477
0.007070209 -0.016760012 0.03640284 -0.03597321 0.02990078 0.0313548 -0.02722273 -0.0018431889
-0.0061042598 0.041161757 -0.008526178 0.026711503 0.03044397 0.027598413 0.01959461 -0.049433246
0.022599457 0.033312544 -0.038234685 -0.010823409 0.010336948 -0.010228613 -0.029660916 0.001482836
0.018525537 0.02810055 0.027806772 -0.030703649 0.017606294 -0.004599082 0.062231157 0.0083852885
-0.04052728 0.008246679 0.020443218 0.0034389906 -0.023252826 -0.01620032 0.01912135 -0.004460679
-0.0506135 -0.03965489 0.041508336 -0.022184594 -0.0005029713 -0.04508243 -0.0011850288 0.054411456
0.028055038 -0.06408536 -0.016680384 0.017076131 -0.04007133 0.054522615 0.018501237 0.012386919
0.0070550605 -0.0521553 0.056283183 -0.044782393 -0.032454215 0.016905207 0.0014979629 0.010934059
-0.041251566 0.0024876746 -0.05228145 -0.021137435 -0.034427904 -0.024900015 0.04654151 -0.02990311
00000000: 841f 153d 9cf0 cabc c27b c03b f111 b3bc
00000010: b5d9 943c fe0f 55bd 6a0e 23bd 3547 893b
00000020: 992c 4a3d 9b43 d3bc d76f a9bc f68a 1038
00000030: 6a5f fc3c 2288 703d 2964 1a3d 7a9e 5f3d
00000040: 690f 81bd b60b cb3c e544 3c3a a4b8 c5bc
00000050: a459 7c3d b76c b3bc 7c80 22bd de91 e2bc
00000060: 2849 82bb 2dd4 bcbc 7018 90bd ff82 dbbc
00000070: 2854 62bd df0e 52bc 13e9 19bd 7a1d 02bd
00000080: 05ee a83c ae3b 883c b102 ffbc c5e7 31bd
00000090: 2fa8 fc3c b5d5 863c 33fc 4fbc cc5c 0d3d
000000a0: 713a d5bc 7878 f63c 3d2c 153a 5ab0 56b9
000000b0: 6362 51bc fb77 e53c dfb7 65bd 8c2b 33bd
000000c0: 7358 723c 27de bd3c 67bf 353c fd9a 2e3b
000000d0: daeb 42bd 5f3f 8f3c 04bb b23b 2f73 06bd
000000e0: 7c04 a73c df02 5f3c 9012 453d 30c1 4c3c
000000f0: 883e 17bd 2af4 c2bc 4293 29bb c391 0f3d
00000100: ccdf debc 5957 3cbd 4649 d63c 9153 733c
00000110: 015a 2dbd 2fb7 54bc 257f dc3c fffb d0bb
00000120: f3cb 143c 4464 d7bc 22d5 cdba 7b38 bfbc
00000130: c0fd dc3c 800c d83c 1937 d03b 881e 18bb
00000140: a4eb 3d3b d36d ed3c ec45 263d 8dad f3bc
00000150: 83d2 2d3c 9fc7 8cbd be14 9f3c 988c 913d
00000160: d93a 053d 21a8 d63c 0d57 193d 8050 4c3d
00000170: 8e30 cfbc cee6 36bd c258 b1bc eaab 19bd
00000180: f6c1 05bd 00ef 62bd 2a61 093b 53df dabc
00000190: c598 d33c 000a 613c a2b4 e83c 835c 413d
000001a0: 6857 213d b0f1 88bc c3e3 b63b 9667 05bd
000001b0: 5c04 ee3c bb67 b3bc f8c9 833b 41c2 273d
000001c0: fac5 583d 7688 98bd e4c3 81bc 35c5 f2bc
000001d0: eeda bfbc d47f 39bd 5893 923c bd08 333c
000001e0: e91d 1e3c f7d2 46bd d2bb 4dbc ae7c 903c
000001f0: 9ba4 c2bc 21f4 acbc e163 e6ba e42f 663d
00000200: 44c3 65bc c886 80bc 2ead 1c3d 983d dcbc
00000210: d65f 6bba 20b4 0bbd 5127 69bc debd 4d3d
00000220: 69ef c0bc b6f4 68bc 67bf 72bc 39f7 483c
00000230: c0ac 65bc fb78 4a3d 2ef6 29bd a4bf 92bc
00000240: cfd6 1f3d c482 efbb 512b a5bc ce52 31bd
00000250: 25fb 6abb be6a 573d 6352 a2bb ea60 f1bc
00000260: 3a92 393d ad42 adbc 499d 42bd 3f7f 29bc
00000270: 1cb7 a9ba eb1e 05bd 7113 eb3b d6cc 81bd
00000280: 77b4 103c c55c 5dbc 8ffc bb3c 6ac9 acbc
00000290: 63b7 1d3d a166 4f3d 1211 75bc bedd c53c
000002a0: c439 81bc 8c76 263d 86f9 fcbc 6cf0 1e3d
000002b0: e496 e53a 5064 393c c3bc f0bc dd90 84bc
000002c0: 4c1f 8abb 646a 04bd 976f 51bc c12b 1abb
000002d0: 5dbc ac3c dbc4 78bc d5c0 fdbc 2a8e 983c
000002e0: 36ad e73b 4b4c 89bc 251b 153d a558 13bd
000002f0: 7bf2 f43c e46d 003d 3402 dfbc 2897 f1ba
00000300: 3e06 c8bb 3b99 283d 62b1 0bbc 15d2 da3c
00000310: a265 f93c 1116 e23c e084 a03c 847a 4abd
00000320: 7f22 b93c bc72 083d f99b 1cbd ab54 31bc
00000330: 4d5c 293c ea95 27bc 73fb f2bc b85b c23a
00000340: dec2 973c 2033 e63c 07cb e33c 3886 fbbc
00000350: 133b 903c e5b3 96bb 19e6 7e3d 7362 093c
00000360: efff 25bd 141d 073c 8978 a73c b060 613b
00000370: b67c bebc 89b6 84bc 61a4 9c3c e32a 92bb
00000380: 1a50 4fbd 2a6d 22bd a504 2a3d 77bc b5bc
00000390: d5d9 03ba 5ba8 38bd f852 9bba 8cde 5e3d
000003a0: aed3 e53c 2f3f 83bd 4da5 88bc 3ee3 8b3c
000003b0: d621 24bd 1b53 5f3d e88f 973c 81f2 4a3c
000003c0: 232e e73b cca0 55bd 3289 663d be6d 37bd
000003d0: b6ee 04bd ca7c 8a3c 4b57 c43a c424 333c
000003e0: 67f7 28bd 4108 233b 1325 56bd 6a28 adbc
000003f0: 4604 0dbd 1efb cbbc 4fa2 3e3d 5ef7 f4bc

fc3.weight f4 [128, 256]
-0.04911725 0.03384301 0.00331653 0.013693244 -0.02261393 -0.072204635 -0.009754135 -0.0028105108
-0.025082583 -0.011259079 -0.0073637115 0.02138949 0.007075563 0.043367907 -0.009928557 -0.07231665
-0.059064366 0.03897581 -0.022020087 0.03945886 0.015797378 0.037375715 -0.0022489578 -0.0085474085
-0.020908259 0.031379692 0.03731904 -0.0828252 0.04877562 -0.03270655 -0.013578499 0.017798929
0.001517857 -0.017613268 -0.029778993 0.03687572 -0.0032397076 -0.037035402 0.019759247 -0.053351305
0.044275794 0.04005621 -0.0068848818 -0.0062752613 0.018333258 0.012974911 -0.09062826 -0.0030078301
-0.061672613 -0.010078517 0.026198184 -0.057539236 -0.04171672 0.007684057 -0.054290313 0.02778788
-0.06045647 0.020482797 -0.06430096 -0.05251264 -0.0612386 -0.058201797 0.0039313086 0.023796575
0.013914049 0.016603852 0.010737598 -0.056352507 0.002029019 -0.069128565 0.022488737 0.058955275
-0.016720807 -0.032225166 -0.041658323 -0.0045735445 0.04562877 -0.03950214 -0.0075303987 -0.0605016
-0.0012329383 -0.03378508 0.03552992 0.028965736 0.045076106 -0.01770817 -0.014301851 -0.024295222
-0.06838669 0.02074266 0.0070062135 -0.045943245 -0.028362457 0.035316758 0.04767904 0.023781277
0.010814859 -0.040814776 -0.044477474 0.031054528 0.04549294 -0.05598677 0.0058006 -0.079530716
0.0074896165 -0.0008053996 0.013250706 0.0047276323 -0.004913213 -0.07073298 0.011452398 -0.0042325594
-0.014452388 -0.034731403 -0.0015167897 -0.016394814 0.008297349 -0.013498237 0.003345777 0.029673582
0.037097875 0.05345825 0.032063328 0.0071302205 -0.048099 -0.0106862215 0.024559319 0.014652106
0.028745426 -0.010908859 -0.05513155 -0.03214474 0.016254885 0.05133009 -0.028044833 -0.05745786
-0.05352202 0.010942776 -0.012880066 0.01898314 -0.031353172 0.04213598 0.01312022 -0.053360146
-0.04471964 -0.07399048 0.025822494 0.013872507 -0.015712945 0.03729885 -0.008746013 0.03481509
-0.06646496 0.043707836 -0.057879742 0.034754366 0.0031052462 -0.06576552 -0.020088311 0.023710817
-0.05654651 -0.056724038 -0.052066598 -0.03258526 -0.023316309 0.02920185 -0.0690413 0.039284166
-0.002418938 0.021622198 0.008741672 -0.04837476 -0.0019998555 0.025815073 -0.06336464 -0.00022315446
-0.04851883 -0.038462497 0.018293042 -0.004198659 -0.022251602 -0.08625396 0.018940447 -0.066664115
0.05593639 0.054090265 0.0452537 -0.007044341 -0.048206784 0.0415446 -0.0066282493 -0.022446128
-0.024376323 -0.0750852 -0.028022971 -0.018186096 -0.019576821 -0.049339086 -0.043273583 -0.041188993
-0.018219313 -0.009524197 0.060648046 0.058345508 -0.045193437 0.017031 -0.041329715 -0.08169815
-0.009121791 -0.0012668225 0.032196183 -0.03073626 0.027270773 -0.030214386 -0.027071614 0.0022316352
-0.0158116 -0.04500403 0.02222019 0.0013822486 0.039754517 0.038402963 -0.022414457 -0.0028631284
-0.041879207 0.0021249328 0.024637595 -0.022937588 0.0009421722 -0.017588861 -0.07428798 0.023012467
0.0064373678 -0.012251854 -0.043716416 0.046634033 -0.031857252 -0.071383104 0.044455342 -0.011298187
-0.074467905 0.036174826 -0.0014874112 -0.03707033 -0.00075351517 0.059650384 -0.038182344 0.041300215
0.0529296 0.022672353 0.030200658 -0.03068508 -0.050690245 -0.03659102 -0.06350885 0.056370247
00000000: 2b2f 49bd f89e 0a3d 245a 593b a159 603c
00000010: d940 b9bc 06e0 93bd cfcf 1fbc 8c30 38bb
00000020: fd79 cdbc 0078 38bc 4a4b f1bb 0339 af3c
00000030: 20da e73b 8ca2 313d 63ab 22bc c01a 94bd
00000040: 7aed 71bd 19a5 1f3d 7863 b4bc 9d9f 213d
00000050: 8169 813c 4717 193d 4063 13bb 6e0a 0cbc
00000060: cc47 abbc fe87 003d dadb 183d 42a0 a9bd
00000070: f2c8 473d 4ef7 05bd 5a78 5ebc 0fcf 913c
00000080: d4f2 c63a b349 90bc 13f3 f3bc ff0a 173d
00000090: 4651 54bb 6fb2 17bd 25de a13c e686 5abd
000000a0: 895a 353d fb11 243d 939a e1bb b5a0 cdbb
000000b0: a12f 963c b994 543c 4f9b b9bd 041f 45bb
000000c0: 6c9c 7cbd 5d20 25bc 939d d63c 43ae 6bbd
000000d0: 27df 2abd 8bca fb3b 855f 5ebd 68a3 e33c
000000e0: 34a1 77bd 8acb a73c 39b0 83bd 7e17 57bd
000000f0: 54d5 7abd 0265 6ebd 35d2 803b 09f1 c23c
00000100: c0f7 633c cd04 883c c0ec 2f3c e3d1 66bd
00000110: 4af9 043b 4793 8dbd 4d3a b83c 167b 713d
00000120: 13fa 88bc 89fe 03bd eba1 2abd acdd 95bb
00000130: 3ce5 3a3d ffcc 21bd 90c1 f6bb 87d0 77bd
00000140: 8b9a a1ba 3962 0abd d287 113d 8d49 ed3c
00000150: b9a1 383d b910 91bc 5052 6abc c606 c7bc
00000160: 520e 8cbd 83ec a93c 6194 e53b fc2e 3cbd
00000170: 6258 e8bc 4ea8 103d 194b 433d f4d0 c23c
00000180: ce30 313c 652d 27bd 032e 36bd 1166 fe3c
00000190: ce56 3a3d 6252 65bd f612 be3b 00e1 a2bd
000001a0: 756b f53b 7421 53ba 7d19 593c 41ea 9a3b
000001b0: 05ff a0bb 74dc 90bd d7a2 3b3c 48b1 8abb
000001c0: b5c9 6cbc 8442 0ebd 04cf c6ba 6b4e 86bc
000001d0: 9bf1 073c b627 5dbc d344 5b3b 0316 f33c
000001e0: f1f3 173d 0af7 5a3d d654 033d a0a4 e93b
000001f0: 7503 45bd 4315 2fbc a030 c93c 630f 703c
00000200: 877b eb3c 12bb 32bc 9fd1 61bd 34aa 03bd
00000210: f728 853c 803f 523d 47be e5bc ef58 6bbd
00000220: e839 5bbd 5449 333c ea06 53bc 8882 9b3c
00000230: 2f6c 00bd c796 2c3d 31f6 563c 2b90 5abd
00000240: f12b 37bd 5288 97bd b289 d33c 8349 633c
00000250: 6fb8 80bc aec6 183d 704b 0fbc 459a 0e3d
00000260: c81e 88bd fd06 333d 4f13 6dbd 985a 0e3d
00000270: 6381 4b3b 13b0 86bd 3e90 a4bc 303d c23c
00000280: 509d 67bd 7757 68bd c943 55bd 1f78 05bd
00000290: d801 bfbc b838 ef3c 8665 8dbd 6fe8 203d
000002a0: 0c87 1ebb 0921 b13c 3b39 0f3c 9d24 46bd
000002b0: 0210 03bb 227a d33c 52c5 81bd 92fe 69b9
000002c0: aebb 46bd da8a 1dbd 4adb 953c e894 89bb
000002d0: fe48 b6bc eba5 b0bd ff28 9b3c 3287 88bd
000002e0: 8e1d 653d c18d 5d3d f25b 393d 37d4 e6bb
000002f0: 7a74 45bd ac2a 2a3d c931 d9bb f1e0 b7bc
00000300: dbb0 c7bc 45c6 99bd 6e90 e5bc 02fb 94bc
00000310: 925f a0bc c817 4abd a43f 31bd cab5 28bd
00000320: ab40 95bc 610b 1cbc 166a 783d b3fb 6e3d
00000330: c11c 39bd 9984 8b3c 5949 29bd 5c51 a7bd
00000340: 9173 15bc 820b a6ba 25e0 033d 9cca fbbc
00000350: f566 df3c 2984 f7bc 4ac5 ddbc a040 123b
00000360: 5487 81bc 2556 38bd 1e07 b63c 912c b53a
00000370: a2d5 223d 6d4c 1d3d 869e b7bc 53a3 3bbb
00000380: 8889 2bbd 7542 0b3b c8d4 c93c 9ce7 bbbc
00000390: 1bfc 763a 8416 90bc 4c24 98bd a484 bc3c
000003a0: 8ef0 d23b 00bc 48bc fc0f 33bd 5403 3f3d
000003b0: c07c 02bd 4e31 92bd ce16 363d 081c 39bc
000003c0: a182 98bd 0e2c 143d 3df5 c2ba 0fd7 17bd
000003d0: 8c87 45ba f653 743d 1765 1cbd 6a2a 293d
000003e0: b5cc 583d 5fbb b93c 5f67 f73c 475f fbbc
000003f0: 93a0 4fbd 77e0 15bd ee10 82bd 7de4 663d

fc3.bias f4 [128]
-0.002593722 -0.011130264 -0.031556636 0.012179568 0.056748264 -0.039488535 0.04294546 -0.0831409
0.08791282 0.009072945 -0.060144205 -0.007154008 -0.014870828 0.043230414 0.035695717 0.015510117
-0.021311035 0.0059159407 0.05555377 0.034692775 0.02778593 0.011317245 0.003301199 0.073476724
0.0053646853 -0.01676548 0.052880324 -0.057786454 0.019424316 -0.0077078603 -0.031165976 -0.08018555
0.034051377 -0.04758142 0.0022527908 0.087591656 0.015511902 0.05906065 0.0003287619 0.008559133
0.002364565 -0.05467718 -0.0015422888 0.07795504 0.06503867 -0.007636185 -0.043587662 0.0032687958
-0.059467297 0.090924464 0.02352786 0.034914553 -0.022042034 0.059556283 0.03908106 0.05927032
-0.019117244 -0.011882502 -0.05789631 0.036139127 0.03709948 0.01569621 -0.052580606 0.0055180946
0.0074792705 0.040095903 -0.07479761 0.025051652 -0.0756585 0.02637483 0.0436015 0.080586866
-0.022465007 -0.059702232 -0.04385733 0.07321019 0.01460013 0.058725372 -0.027437188 -0.032814894
0.067527965 0.0036111819 0.06286441 -0.018005516 -0.021502836 -0.0045118006 -0.051495034 -0.030229257
0.04492006 -0.015026595 -0.008142351 0.012365906 0.041453715 -0.03102175 0.0080085555 0.08449288
0.0775697 0.005793541 -0.021259908 0.045622393 0.031935796 -4.594716e-05 -0.0485981 0.00030906446
-0.024906922 -0.02035854 -0.043195974 -0.03639131 0.025580104 0.06518924 -0.050439116 -0.005393653
0.009490065 0.106571786 -0.01087733 -0.051964812 -0.00823956 -0.063786246 -0.035475343 -0.01902031
0.0056755403 0.0014687908 0.09807917 -0.052085135 0.02692983 0.026447931 -0.02319304 0.013289963
00000000: 6ffb 29bb b65b 36bc 8841 01bd d08c 473c
00000010: de70 683d bbbe 21bd 94e7 2f3d c745 aabd
00000020: a30b b43d b1a6 143c c559 76bd 2b6c eabb
00000030: c6a4 73bc 6012 313d ac35 123d 251e 7e3c
00000040: 7b94 aebc 82da c13b 5a8c 633d 031a 0e3d
00000050: 529f e33c f76b 393c ee58 583b f77a 963d
00000060: 3eca af3b c357 89bc 0a99 583d 7db1 6cbd
00000070: be1f 9f3c 3892 fcbb ca4f ffbc 5238 a4bd
00000080: 7579 0b3d bce4 42bd 8fa3 133b 4163 b33d
00000090: a225 7e3c 95e9 713d ad5d ac39 9b3b 0c3c
000000a0: d1f6 1a3b 2ef5 5fbd a026 caba e4a6 9f3d
000000b0: ff32 853d f638 fabb fa88 32bd 4b39 563b
000000c0: fb93 73bd 9b36 ba3d 80bd c03c 9002 0f3d
000000d0: 7f91 b4bc 4af1 733d 7613 203d 6fc5 723d
000000e0: c49b 9cbc d3ae 42bc ae24 6dbd 9f06 143d
000000f0: a0f5 173d 5795 803c c35e 57bd 22d1 b43b
00000100: ab14 f53b 9a3b 243d 7d2f 99bd 1f39 cd3c
00000110: d8f2 9abd 0710 d83c 7d97 323d ba0a a53d
00000120: 8908 b8bc 548a 74bd bea3 33bd 39ef 953d
00000130: 6235 6f3c 048a 703d f4c3 e0bc e968 06bd
00000140: 1a4c 8a3d 94a9 6c3b 0ebf 803d 4e80 93bc
00000150: b726 b0bc bad7 93bb 75ec 52bd 59a3 f7bc
00000160: 19fe 373d 1c32 76bc 7f67 05bc 5e9a 4a3c
00000170: 5fcb 293d 5321 febc 5136 033c 9a0a ad3d
00000180: dddc 9e3d bfd7 bd3b 4229 aebc 8cde 3a3d
00000190: 1ccf 023d 63b7 40b8 cd0e 47bd ee09 a239
000001a0: 9a09 ccbc f4c6 a6bc 43ee 30bd 0e0f 15bd
000001b0: 5e8d d13c f081 853d 3f99 4ebd 3ebd b0bb
000001c0: 387c 1b3c 4f42 da3d d436 32bc 0ed9 54bd
000001d0: 38ff 06bc 5da2 82bd 984e 11bd 7bd0 9bbc
000001e0: e2f9 b93b 7184 c03a bbdd c83d 3957 55bd
000001f0: f29b dc3c 55a9 d83c 55ff bdbc 25be 593c

fc5.weight f4 [4, 128]
-0.06617509 -0.11807185 0.023808554 -0.053896103 0.04720146 -0.017707663 0.040606488 0.06334299
-0.10982176 0.040192034 -0.05120188 -0.044802777 0.050986014 0.040570974 0.036144953 0.06744876
-0.01260423 -0.019743662 0.0358979 -0.03272603 -0.020192772 -0.10959853 -0.05242302 -0.11262546
-0.017264938 0.0017714041 -0.1231245 -0.03471195 -0.09801905 -0.04577905 -0.03307097 -0.0060564787
0.074162625 -0.034996662 -0.045532476 -0.07468257 0.054279096 -0.01919084 -0.02205591 0.0027580953
-0.017568883 0.012158008 -0.0171834 -0.22129834 -0.079581544 -0.04401863 -0.013053947 -0.015386574
0.029719492 -0.06755998 -0.12137367 -0.09006191 0.0021232686 0.05076913 0.06680569 0.0475433
-0.039286572 -0.0771134 -0.051101375 -0.046505604 0.0020838545 0.047551505 0.039940707 -0.02949707
-0.09255316 0.025009012 -0.10305356 -0.054285932 0.07516575 -0.02950837 -0.075509205 -0.049611133
-0.050538365 -0.086386375 -0.019385632 -0.08237355 0.013540175 0.0043603294 -0.017706243 0.045686036
-0.08593529 -0.051206324 -0.0032962519 0.03861683 -0.05696817 -0.032465324 -0.010012814 -0.045813203
-0.08591336 0.030120792 -0.0035866739 -0.04468641 -0.044908665 -0.07553864 -0.050146293 -0.06639505
-0.0634374 0.03936733 -0.018028025 -0.030893706 0.00915023 -0.03458163 0.014435644 0.0753011
0.038551338 0.06619947 -0.045216992 0.057590023 0.014675954 -0.05137758 -0.03889761 -0.04991427
-0.06878847 -0.13967575 0.017886866 -0.049849562 0.01716328 0.08130019 0.02371242 -0.09598569
-0.028593991 -0.035636194 -0.13092977 -0.040486302 0.043278594 0.006337164 -0.048457514 0.063453756
0.05949506 -0.117796436 -0.0942408 -0.0006992384 -0.1718622 0.015005653 0.0017638707 -0.01218959
0.0971194 -0.14548513 -0.03604342 -0.1047451 0.010248804 0.037397142 0.038525887 0.108618245
0.011553303 0.108211435 -0.19197711 -0.038027853 0.022510305 -0.0551171 0.060524534 0.07257694
-0.014895527 0.001236507 0.031994052 0.009948378 0.07116772 -0.11503228 -0.0065498305 -0.028565412
0.043095384 -0.054707028 -0.17264505 0.008325418 -0.06282656 0.13383773 0.027256956 -0.021210063
0.09639703 -0.011957444 -0.17231996 0.03554402 -0.04332887 0.020881789 -0.060608454 -0.17734133
0.035887785 0.052432228 0.08054495 0.024332073 0.008775656 0.10524925 -0.012010556 -0.13570721
0.07447485 0.10907463 -0.02932667 0.028279971 0.048758656 -0.049912423 -0.01848691 -0.10151512
0.13409139 -0.061919373 0.038585715 0.041577853 0.080346815 0.032549616 0.044910334 0.0736409
0.023922049 -0.024551384 0.026789343 0.073983274 -0.076419145 -0.054967992 0.07607451 0.105974294
-0.14122413 0.023987938 0.07675076 0.07027339 0.038332146 -0.07339817 0.048404362 0.03766767
-0.007913857 -0.09450754 -0.060110204 0.13492724 0.092887886 0.04287744 0.07736658 0.13990267
-0.116918266 0.036143027 -0.081371136 0.025721889 0.06468687 -0.03672523 0.11831938 0.02282682
0.017073683 -0.05795038 0.047784105 0.018417826 0.07005899 0.14503506 0.0015453579 -0.0075291363
0.06166625 0.11661568 -0.11723021 -0.009499184 0.0169162 -0.0074586803 -0.16147879 0.08238148
0.037354104 -0.1525548 0.07002687 -0.037881665 0.12935475 -0.10668672 -0.0028408791 -0.03713417
00000000: ce86 87bd a7cf f1bd 280a c33c 29c2 5cbd
00000010: 5156 413d a90f 91bc fd52 263d f8b9 813d
00000020: 3bea e0bd 67a0 243d 10b9 51bd 1e83 37bd
00000030: b6d6 503d c02d 263d bb0c 143d 9322 8a3d
00000040: f981 4ebc 76bd a1bc ad09 133d bb0b 06bd
00000050: 506b a5bc 3275 e0bd 85b9 56bd 2da8 e6bd
00000060: 336f 8dbc 752e e83a b328 fcbd 1e2e 0ebd
00000070: 36be c8bd d082 3bbd 6d75 07bd 6d75 c6bb
00000080: 93e2 973d a958 0fbd 4380 3abd 2df3 98bd
00000090: c253 5e3d 1c36 9dbc 99ae b4bc 29c1 343b
000000a0: 9eec 8fbc 6232 473c 34c4 8cbc 089c 62be
000000b0: a6fb a2bd e14c 34bd 39e0 55bc f817 7cbc
000000c0: 4b76 f33c e35c 8abd c292 f8bd 6172 b8bd
000000d0: 8926 0b3b 4bf3 4f3d 6cd1 883d c3bc 423d
000000e0: f5ea 20bd a1ed 9dbd ad4f 51bd a97c 3ebd
000000f0: 4791 083b 5ec5 423d de98 233d d7a3 f1bc
00000100: 838c bdbd b3df cc3c bf0d d3bd ed5a 5ebd
00000110: 80f0 993d 8abb f1bc 92a4 9abd 0b35 4bbd
00000120: 5101 4fbd 57eb b0bd 9ece 9ebc 77b3 a8bd
00000130: 9cd7 5d3c 18e1 8e3b af0c 91bc 4821 3b3d
00000140: d7fe afbd b9bd 51bd ee05 58bb ae2c 1e3d
00000150: 7557 69bd 5cfa 04bd c90c 24bc a0a6 3bbd
00000160: 58f3 afbd e1bf f63c 670e 6bbb 1909 37bd
00000170: 26f2 37bd 01b4 9abd 3366 4dbd 21fa 87bd
00000180: 78eb 81bd a33f 213d 82af 93bc cc14 fdbc
00000190: d9ea 153c 78a5 0dbd 7b83 6c3c 7737 9a3d
000001a0: 02e8 1d3d 9693 873d 7435 39bd 84e3 6b3d
000001b0: 6a73 703c 4c71 52bd 1a53 1fbd e872 4cbd
000001c0: f8e0 8cbd 2907 0fbe 7a87 923c 0e2f 4cbd
000001d0: 029a 8c3c b780 a63d 8d40 c23c 2594 c4bd
000001e0: f23d eabc 42f7 11bd 7412 06be f7d4 25bd
000001f0: e544 313d fca7 cf3b 637b 46bd 0bf4 813d
00000200: 18b1 733d 423f f1bd 5201 c1bd 184d 37ba
00000210: a5fc 2fbe 45da 753c ae31 e73a d9b6 47bc
00000220: 89e6 c63d 0efa 14be 44a2 13bd 9984 d6bd
00000230: 9aea 273c bf2d 193d 52cd 1d3d 3e73 de3d
00000240: 114a 3d3c f59d dd3d a695 44be 18c3 1bbd
00000250: 8867 b83c 78c2 61bd 93e8 773d 38a3 943d
00000260: 5e0c 74bc 4a12 a23a 320c 033d 86fe 223c
00000270: 62c0 913d 0b96 ebbd f69f d6bb 0302 eabc
00000280: c984 303d 7a14 60bd ddc9 30be 5667 083c
00000290: 36ab 80bd c20c 093e fb49 df3c bac0 adbc
000002a0: ce6b c53d 28e9 43bc a574 30be 9b96 113d
000002b0: 9d79 31bd 4910 ab3c 9240 78bd f798 35be
000002c0: 12ff 123d 2dc3 563d c0f4 a43d 0e54 c73c
000002d0: c5c7 0f3c eb8c d73d ecc7 44bc d5f6 0abe
000002e0: 4586 983d 8562 df3d 7c3e f0bc 66ab e73c
000002f0: 28b7 473d f870 4cbd dc71 97bc 29e7 cfbd
00000300: 414f 093e 2b9f 7dbd 0e0c 1e3d 8a4d 2a3d
00000310: df8c a43d bf52 053d e6f3 373d 0ad1 963d
00000320: 2cf8 c33c fc1f c9bc 5375 db3c 8b84 973d
00000330: a481 9cbd 1e26 61bd f4cc 9b3d 0d09 d93d
00000340: 0f9d 10be 5a82 c43c 812f 9d3d 7feb 8f3d
00000350: 2b02 1d3d c851 96bd a743 463d 6a49 1a3d
00000360: 1fa9 01bc 2b8d c1bd 1e36 76bd 5e2a 0a3e
00000370: 013c be3d 41a0 2f3d 5f72 9e3d a542 0f3e
00000380: d872 efbd b60a 143d e9a5 a6bd b6b6 d23c
00000390: 8d7a 843d 326d 16bd 6e51 f23d 50ff ba3c
000003a0: 1cde 8b3c 615d 6dbd 44b9 433d fbe0 963c
000003b0: 167b 8f3d 1284 143e 9b8d ca3a f9b6 f6bb
000003c0: c095 7c3d 34d4 ee3d 6416 f0bd 77a2 1bbc
000003d0: d893 8a3c f267 f4bb b25a 25be 9fb7 a83d
000003e0: 9e00 193d 5337 1cbe 3f6a 8f3d ce29 1bbd
000003f0: 9275 043e 917e dabd 0b2e 3abb 001a 18bd

fc5.bias f4 [4]
-0.026246758 -0.04343907 -0.03175499 0.026064789
00000000: 7103 d7bc 2bed 31bd 8511 02bd d385 d53c
