actor_cartpole.pt (torch, 3351 bytes, 6 tensors)

fc1.weight f4 [16, 4]
000000 08 0e 17 3e 2c 1d 9d be 78 3c 38 bf c4 42 20 bf
       0.14751446 -0.3068632 -0.7196727 -0.62601876
000010 71 8c a8 3e 2f 3b 3d be 4d 77 93 bf ac ff 2c be
       0.32919648 -0.18479608 -1.1520783 -0.16894406
000020 a3 bc d9 3c cc 29 e8 be 33 60 e8 3e cd 14 43 3f
       0.026579207 -0.45344388 0.45385894 0.76203614
000030 b5 b9 d1 bd 64 eb b8 be 20 fb 41 be 1c 26 32 bf
       -0.10240499 -0.3611709 -0.18943453 -0.695894
000040 6b 53 db 3e c8 56 a3 3e 29 10 50 be fd 1d 34 be
       0.4283708 0.31902146 -0.20318665 -0.17589565
000050 07 cd b9 3e a7 e9 a3 be 1c 66 80 3d f2 16 c5 3c
       0.36289236 -0.320142 0.06269476 0.024058793
000060 16 6b 59 be 8a af ad be 66 d8 46 bf 66 f9 1a bf
       -0.21232256 -0.33922988 -0.7767395 -0.605368
000070 aa b6 d3 3e a2 27 a3 be dd 4b ab 3e 15 dd ad be
       0.413503 -0.31866175 0.33456317 -0.33957735
000080 02 5f d7 be 27 14 a3 bd bb 3d 4d 3f 73 77 c1 3e
       -0.42064673 -0.07962828 0.8017232 0.37786445
000090 21 e6 5f be 22 e4 92 be 59 18 8b bf c3 9c 9c be
       -0.21865131 -0.28689677 -1.0866805 -0.3058835
0000a0 c3 63 09 be 60 c9 3a 3d 7b bc 66 bf 9e a6 cb bd
       -0.13416962 0.045602202 -0.9013135 -0.09943889
0000b0 50 c5 a4 be f2 f2 c4 3e 6a e4 d8 3d 01 5b f6 be
       -0.32181787 0.38466603 0.105904415 -0.48116305
0000c0 00 2c 5c bd e7 07 c4 bd 74 c8 a6 3e 30 5c e7 be
       -0.0537529 -0.0957182 0.3257481 -0.4518752
0000d0 b7 58 9b 3e 95 aa 83 ba 45 ac ad be b4 77 12 bf
       0.30341122 -0.0010045344 -0.33920494 -0.572139
0000e0 d0 f8 38 3e 3d 8e 05 3f 9b ca 83 3d 6b 39 ad 3b
       0.18063664 0.52170163 0.06435128 0.005286386
0000f0 16 9b df be f1 28 bd bd 2c 18 9e 3e f6 9d 34 3f
       -0.4367301 -0.092363246 0.30877817 0.7055353

fc1.bias f4 [16]
000000 a4 3c 31 3e ea ef 35 3e 0e ff 78 3e bb d0 75 bc
       0.17308289 0.17767301 0.24316046 -0.0150033785
000010 2c 37 b4 bd c3 bc 88 3e 45 4e 21 3e 2f 6e 11 bf
       -0.08799586 0.26706514 0.15752514 -0.5680875
000020 d8 63 d7 3e f1 13 b4 3e ba 5c 89 3e f0 33 85 be
       0.42068362 0.35171464 0.26828557 -0.26016188
000030 1c 41 cb be f2 4e 42 3e c7 b6 2c 3e 11 77 c2 3c
       -0.39698112 0.18975428 0.16866599 0.023738416

fc2.weight f4 [16, 16]
000000 ff b2 fa 3e 48 bb 0c 3e 07 01 2d bd b0 8b b2 3e
       0.48964688 0.13743317 -0.042237308 0.34872198
000010 b9 35 6d 3e 52 ea ae 3e 09 be 82 3e 65 2a 52 bc
       0.23165025 0.34163147 0.2553561 -0.01282749
000020 0a 5a ef 3d 98 82 c6 3e a8 82 1b 3c 86 6f 40 3e
       0.116870955 0.3877151 0.0094916 0.18792543
000030 7d d7 b9 bd cb 7b a8 3e cb aa ea 3d b0 d2 a4 be
       -0.09074304 0.32906947 0.114583574 -0.32191992
000040 0c 71 b2 3e 29 32 bc bd c9 85 41 bc a0 4f bb 3e
       0.34851873 -0.09189255 -0.011811682 0.36584187
000050 b7 44 ab 3c b1 0f af bc 9c 9b 3f 3e 5f 74 92 3e
       0.02090679 -0.021369787 0.18711704 0.2860441
000060 80 c8 1e be a0 58 a3 3e fb 37 5e be d2 07 0d be
       -0.15506172 0.31903553 -0.21701042 -0.13772514
000070 35 28 27 3e 82 10 b9 3c d2 4b 2f be 76 ab 06 bd
       0.16323932 0.02259088 -0.17118767 -0.03287836
000080 4f 4b 95 be d9 f1 38 be 3c 4b 31 3d d1 04 47 be
       -0.29159018 -0.18061008 0.04328464 -0.19435431
000090 ff 2c 58 bd 21 00 20 bd 96 fb 5e be 06 8f 1e bd
       -0.052777287 -0.039062623 -0.2177566 -0.038710617
0000a0 55 f9 8c 3e 0e 36 2f 3e 45 a6 3b be 6d e5 8e bd
       0.27533975 0.17110464 -0.18325146 -0.06977353
0000b0 cd d7 99 3d 6c 63 99 3d 6c 94 da 3e f8 c7 e2 3e
       0.07511864 0.07489666 0.42691362 0.4429319
0000c0 e7 30 e8 3e 42 b7 ac 3e a3 97 95 3d 90 bc 1d 3f
       0.4534981 0.33733565 0.07304313 0.6161585
0000d0 4b 91 50 3e 7c 01 82 3d ec a9 ed 3e 81 15 d4 3d
       0.20367925 0.06347939 0.46418703 0.10355664
0000e0 c2 8d 0a be 3b 22 a4 3e f9 db 0d 3e f7 c5 3f 3d
       -0.13530639 0.32057366 0.13853444 0.046819653
0000f0 c3 01 b1 3e c0 a0 7f 3c 67 2c fb bd af 90 7a 3d
       0.34571657 0.015602291 -0.122643284 0.061173137
000100 af 0a 1e bd 7b d2 87 3e 4a 93 50 bd b7 33 13 3e
       -0.038584407 0.2652777 -0.050921716 0.14375196
000110 5c a1 8e be 7c 55 1b 3e df bf 2c 3e 48 98 12 be
       -0.27857482 0.15169328 0.16870068 -0.14315903
000120 c4 b4 5d 3e 0a d2 1a bd 5a 0f 14 3e 69 cf 80 be
       0.21650988 -0.037797965 0.14458981 -0.2515824
000130 c4 11 bf bc 7b 51 94 3d 1c eb 19 3e 12 db 25 3e
       -0.023323901 0.07242104 0.15031093 0.1619685
000140 39 92 39 3e 71 0a e8 3c df 50 7f bc ec 89 08 3f
       0.18122186 0.028325291 -0.015583246 0.5333545
000150 fc 02 5a bd 7b 8b f5 bc 5b ee 61 3e 6f e4 a5 3e
       -0.053225502 -0.029973736 0.22063582 0.32400844
000160 3e 7e 99 be b7 f7 a5 3e 34 cd 29 bd d5 f7 cc 3d
       -0.29979128 0.32415554 -0.041455463 0.10008208
000170 fd 6b f2 3c ce 0b 4e 3d 71 26 7c be 91 e9 ae bd
       0.029592508 0.050304227 -0.24624039 -0.08540643
000180 0f c9 24 3e 0c a6 53 be ea 58 3b bd 77 64 a7 be
       0.16092323 -0.2066881 -0.045739092 -0.32693836
000190 28 fb 5c 3c e4 b5 b8 bd 79 a4 33 be 7e e5 51 be
       0.013487615 -0.09019068 -0.1754321 -0.204977
0001a0 e6 89 9b bd 6d 7e be bc a1 1d 68 3c ea 11 5d 3d
       -0.075946614 -0.023253644 0.01416722 0.053972162
0001b0 51 49 e4 3d 20 c8 fc 3d af d8 bd 3d 68 cc 07 3e
       0.111467965 0.12342858 0.09269845 0.13261569
0001c0 90 f2 89 3e 47 ad 09 3e fe da a1 bd 14 54 c8 3d
       0.26942873 0.13445006 -0.079030976 0.09781662
0001d0 0f cd 1e 3e 63 0e 14 bd 14 e3 de 3e dc 97 13 be
       0.15507911 -0.036146533 0.43532622 -0.14413399
0001e0 86 3a 90 3e a5 71 bf 3e aa 6c e5 3d a0 bc e7 3d
       0.2816965 0.3739139 0.11202367 0.11315274
0001f0 43 0f 71 bd a9 48 c6 bc fb 27 bc bd 1d eb 8f 3d
       -0.058852445 -0.024204569 -0.09187313 0.07027266
000200 03 16 5d bd 76 4e 05 be 2b 41 d6 3e f9 8d b0 be
       -0.05397607 -0.13018212 0.41846594 -0.34483317
000210 7b bf e6 bc 0e c0 5a 3e 6c 47 3d bc eb 41 9a 3d
       -0.028167477 0.21362326 -0.011552673 0.07532104
000220 d2 bb b6 3e 9b b5 ee bd 53 a4 a4 bd d0 92 a1 3d
       0.3569017 -0.11655732 -0.08039155 0.078893304
000230 0c 9e 96 bc d6 58 25 be 44 5f 7e 3e f0 43 01 3f
       -0.01838591 -0.1614717 0.24841028 0.5049429
000240 c2 c4 46 3e 37 4c 93 be 11 c6 3c 3d 16 4b 88 bd
       0.19410995 -0.28769085 0.04608733 -0.066549465
000250 7c ec 38 3e 43 e8 63 bd 0f 75 8f 3d 47 a0 9e 3d
       0.18058962 -0.055641424 0.07004749 0.07745414
000260 ee 11 73 bd 87 35 94 bd bb 86 3e 3d 21 da 56 bd
       -0.05934327 -0.07236772 0.046515208 -0.052454118
000270 d7 b5 9b 3d 18 ae 8d 3d b7 8a 89 be 7c bd 20 be
       0.076030426 0.069179714 -0.26863644 -0.15697283
000280 88 45 89 be e6 e8 94 bd 34 31 8a 3e a9 1d df be
       -0.2681086 -0.07270984 0.26990664 -0.43577316
000290 d5 7d 29 3e 91 60 40 3e 7a 08 ef be 37 e7 0f be
       0.16551907 0.18786837 -0.46686155 -0.14053045
0002a0 b5 7f cb 3e 39 6e d0 bd a0 f0 3d 3e fc 86 12 3e
       0.3974587 -0.10177273 0.18548822 0.14309305
0002b0 89 20 0c 3e b9 d7 df 3d d4 2f 87 3e 49 67 97 3e
       0.13684286 0.10929818 0.26403677 0.29570988
0002c0 9e cd fc 3d 2e 72 c2 3c 0b 04 49 3d 59 42 a0 be
       0.12343906 0.023736086 0.04907612 -0.3130062
0002d0 dc b1 8f bd c6 86 3a bd 40 34 78 be 10 aa 4d 3e
       -0.07016346 -0.045538686 -0.24238682 0.20084405
0002e0 87 dc 82 3e f4 86 b1 bd 9d 54 0f be 45 fa 70 3e
       0.25558874 -0.086683184 -0.13997121 0.2353297
0002f0 1a da 8e bc 91 08 a4 bd fe c5 af 3d bd fa 3c 3e
       -0.017437983 -0.080094464 0.08582686 0.18455024
000300 e9 1a c5 3e b4 68 94 3e 99 8e 3e bd 8a d4 04 3f
       0.38497093 0.28986132 -0.04652271 0.5188681
000310 d9 66 1d 3e 5c 32 03 3e 23 7f 74 3e 98 f7 10 bd
       0.15371265 0.1281218 0.23876624 -0.035392374
000320 bb f3 89 bc e8 2f 1b 3e dd d5 a1 3e 21 c7 5a bd
       -0.016839853 0.15154994 0.31608477 -0.05341256
000330 fb 45 41 bd cd 4d 40 bd dc dc 60 3d 32 b7 19 3e
       -0.04718588 -0.046949197 0.054898128 0.1501129
000340 3f 4d 98 bd 0e bb c4 3d 59 fc e4 bd f4 53 74 be
       -0.074366085 0.0960599 -0.11180944 -0.2386015
000350 6c 87 9e 3e da ef ad 3e d9 8f 9d 3d 8d 48 a7 be
       0.30962694 0.33972055 0.076934524 -0.3267254
000360 21 fb df ba da 9d dc bb 02 5b 62 bd 1d 9f 1a be
       -0.0017088392 -0.0067326846 -0.055262573 -0.1509976
000370 78 18 24 bd b0 1f ba bd 86 e1 88 3e bf 6b 10 be
       -0.040062398 -0.09088075 0.2673456 -0.14103602
000380 ab e5 8f bd f7 ab 14 3d fa b4 a4 3e f4 a6 a6 bd
       -0.070262276 0.03629681 0.32169324 -0.081373125
000390 ac 13 a7 3e ad 68 04 3e 4c f9 98 be cd 69 4e 3d
       0.32632196 0.12930556 -0.29877698 0.05039387
0003a0 4c 81 ba 3d e2 fc c6 bd da d3 d5 3c 4d e1 f9 bd
       0.09106693 -0.09716202 0.026101995 -0.12201176
0003b0 34 ea 04 3e 7b a6 6b be b3 c9 70 3d 60 1e bc 3e
       0.12979966 -0.23012726 0.058786105 0.36741924
0003c0 2e 13 04 be 56 49 28 3e 72 8a 03 be 72 60 70 be
       -0.12897941 0.16434225 -0.12845781 -0.23474291
0003d0 2c 1f f1 3d 00 f4 29 3c 84 67 48 be f0 89 28 3e
       0.11773524 0.010373116 -0.19570738 0.16458869
0003e0 0c 50 ed 3d 36 87 08 be b0 1a 2d bd c8 5c 53 3d
       0.11587533 -0.13332829 -0.04226178 0.051602155
0003f0 bc 21 46 3e 0c 59 44 be 94 e5 f4 bd c0 86 2f 3c
       0.19348806 -0.19174594 -0.11957851 0.010713279

fc2.bias f4 [16]
000000 d9 ae e1 bd 24 88 06 3e 16 41 7a 3e b6 ec d0 bd
       -0.11019678 0.13137871 0.24438891 -0.10201399
000010 a9 7a 52 be 11 5a 3b 3e 37 61 2b be 30 1e 45 be
       -0.20554604 0.18296076 -0.16736303 -0.19249797
000020 cf bc 0e 3e 31 30 e2 bd a9 d2 9a 3e 8e 2e 37 be
       0.13939212 -0.11044348 0.30238846 -0.17888853
000030 6a 26 2d be 8a 40 bf 3c f2 a1 2e 3e c4 a3 ce bd
       -0.16909185 0.023346204 0.17053965 -0.100898296

fc5.weight f4 [2, 16]
000000 50 48 c3 3e f8 a5 bc bc b7 da 41 be 68 df 0f 3e
       0.38141108 -0.023028359 -0.1893109 0.14050066
000010 79 d8 0d 3e cb fc 58 3d e8 d2 b5 bd 02 f1 dd 3e
       0.13852109 0.052975457 -0.08878118 0.43347937
000020 94 2d 94 bd 1b 07 73 3c 33 41 8d be 52 e8 25 3e
       -0.07235256 0.014833237 -0.27588806 0.16201904
000030 d1 85 eb 3d 37 8a 83 be f6 8b 52 be 40 a4 fa bc
       0.11500133 -0.25691387 -0.20561203 -0.030595899
000040 89 0f 98 be 4d f9 98 be 19 2b dd 3e 09 59 e6 be
       -0.29699352 -0.298777 0.43196943 -0.44989803
000050 06 34 a8 bc b4 6b a2 be 38 f6 3a 3e 24 da 94 be
       -0.02053262 -0.31722796 0.18257987 -0.29072678
000060 05 18 01 3f 4d f4 06 3d af a1 8d 3e 56 f6 91 3e
       0.50427276 0.032947827 0.27662417 0.28508252
000070 57 60 ee be 66 5f 94 3e 1e f7 a2 3e 90 18 88 3d
       -0.46557876 0.28979033 0.3182916 0.0664531

fc5.bias f4 [2]
000000 0f 02 24 3e af 0f 2f 3c
       0.1601641 0.010684892
