critic_LL.pt (torch, 678159 bytes, 7 tensors)

fc1.weight f4 [512, 8]
00000000: 0002 703b 0ca1 133e 1caa 073e 80a7 82bc
00000010: 330e a83e 982a d43d 08f1 1dbd 3cf7 9fbd
00000020: 8a69 6dbe 0e37 473e def5 54be 96b2 70be
00000030: fc84 f7bd a007 1d3d 0e08 423e 3022 3c3d
00000040: f73c 24be 0291 163e c415 7cbe 50e2 25be
00000050: 009d 133b a661 423e b672 673e cdef a83e
00000060: d8bf 143e d94b 1cbe 23cd a2be 2c7a 9fbe
00000070: eeb6 2f3e 1f36 913e 582d 67bd 24aa 013e
00000080: e66c 98be 83ba 913e 58e3 c4bd 807a 363c
00000090: b8b2 653d a00a 433c 6862 ff3d b2a0 783e
000000a0: 35f9 51be 5043 433d 50b0 6d3d 94b1 25be
000000b0: 4e18 6b3e 7743 ad3e 6cd2 a9bd 507d 8cbd
000000c0: ee61 68be 50f6 8dbc 802a 9cbc e0bf 8ebc
000000d0: 4051 53bc 0aec 663e 4297 1f3e a8dd 31bd
000000e0: 0c3e 9fbe 205d 11bd a5ca 863e 923c dabd
000000f0: fe7a 6d3e 3035 003d bd66 b4be 2436 41be
00000100: 40f3 c93d 1a40 59be b829 083d 44d7 05be
00000110: 5315 913e bc87 b33d 389b a9be adcb 10be
00000120: a2bd 7dbe 4b7f 5abe 1259 503e ae66 703e
00000130: 5758 acbe 7edb 91be 86bd 7dbe 1840 82be
00000140: 3f33 ab3e 75db a8be a177 9f3e 9029 fcbc
00000150: 7c52 acbe 00d9 6b3c 3aab 443e 6053 efbd
00000160: 5adf 0c3e bdaf 9d3e de56 793e e7aa 6dbe
00000170: 00e5 d83a deb8 08be 363b 28be a85d f23d
00000180: 1eab 353e c0a2 ffbb ca90 96be 087b a63d
00000190: b8d3 d0bd a4e8 f43d bbfc 9e3e 8818 a83d
000001a0: 0f3f 87be 6280 a2be 9013 b3bd 5706 933e
000001b0: 4f25 9f3e 8bd9 81be 30d9 d23c 18a5 20bd
000001c0: d085 8abe f904 74be 7c89 ae3d a0dd cebc
000001d0: d649 5c3e 10e2 aa3c 5e3e 233e 4663 98be
000001e0: a9ae 90be 4227 773e 00f9 623d 1094 8bbc
000001f0: 30bc 2bbd 4af5 7b3e b80c 1c3d 173b adbe
00000200: c4f5 8ebe b82c e5bd e26a 5e3e 89d7 09be
00000210: 8098 073e e1a5 96be 6615 783e 633d 9a3e
00000220: d969 a63e a858 d93d db2b 913e d0ff 173d
00000230: 807f b73c 6021 ac3c 1092 623d 5218 5abe
00000240: 77ec 903e c821 c83d 4e63 2b3e f012 113d
00000250: 7262 3c3e 51d7 02be daf1 7bbe b476 7fbe
00000260: 8677 5c3e a0c1 433d 2800 0f3d 024d 303e
00000270: c03d 423c 4e07 78be d385 a83e 12b0 613e
00000280: 2f85 87be 403f 7a3d 1457 afbe e5f3 2bbe
00000290: 1ead 3a3e cefa 04be dada 9bbe da65 90be
000002a0: a542 b33e 916e 9ebe 00fb 8cbb 7270 493e
000002b0: f0ae 89be 4569 9e3e 9ae6 193e 0a91 08be
000002c0: 2e07 163e 883e 4f3d bf0e 933e 3b42 92be
000002d0: 704e e3bc 60a5 efbc e00c 96be c2f9 2b3e
000002e0: 772d 74be 70a8 ff3d 5ae9 93be b5f6 883e
000002f0: 44be 78be 450f 20be 9856 053e 63de 943e
00000300: 86ca 723e cc23 8a3d d206 edbd 3688 9fbe
00000310: 31f3 a8be da51 3d3e 7012 cabc 18b9 4bbd
00000320: 72d2 6c3e f040 683d 47d2 04be d99a a83e
00000330: 608b 57bc 70d6 a4be e27c 80be 9827 ed3d
00000340: 8187 9cbe 009a 2ebd 0a9e 2f3e ec77 93be
00000350: 7836 5e3d 1439 be3d 659a a53e 1033 aabc
00000360: 40f3 1bbc 1943 50be 9549 933e 9a29 afbe
00000370: 4014 c5bc 26f5 b1be d0c2 f3bc e5a3 a9be
00000380: a481 db3d ab28 88be 13a1 a8be ffdb 1abe
00000390: c89f 583d f01c 9abc 1602 443e b5a4 5ebe
000003a0: a0a4 0c3c 00a5 2cbc 9622 08be 2e7f 85be
000003b0: b457 cb3d d00b d73d 1d78 6dbe 58ec 0d3d
000003c0: 64a9 e9bd 92a1 ecbd eadd 5e3e a00b b1bd
000003d0: 611d a03e ba31 2e3e c80f 34be d42c 85be
000003e0: 2291 703e 55c7 a03e 5087 39be 683b 99bd
000003f0: 869d 753e e0a1 02bd 7e77 63be 7c0b 94bd
0.0036622286 0.14416903 0.13248485 -0.01594901 0.32823333 0.103596866 -0.038559943 -0.07810828
-0.23184791 0.19454595 -0.20796916 -0.23505625 -0.12085912 0.03833735 0.18948385 0.04593104
-0.16038881 0.14703754 -0.24617678 -0.16199613 0.0022524 0.18982562 0.22602352 0.32995453
0.14526308 -0.15263309 -0.31797132 -0.31147897 0.17159626 0.28361604 -0.056439728 0.1266256
-0.29770583 0.2846261 -0.09613675 0.011137605 0.056078643 0.011904389 0.124699414 0.2428005
-0.20505221 0.047671616 0.058029473 -0.16181022 0.2295849 0.33840534 -0.08292088 -0.06859839
-0.22693607 -0.017329365 -0.019063234 -0.017425478 -0.0128977895 0.2255098 0.15585044 -0.04342428
-0.31102026 -0.0354892 0.2632648 -0.10656084 0.23191449 0.031300724 -0.35234633 -0.1886831
0.098608494 -0.21215859 0.03324291 -0.13070399 0.28336582 0.08766124 -0.33126235 -0.14140196
-0.2477937 -0.21337621 0.20346478 0.23476669 -0.33661148 -0.28487772 -0.24779329 -0.25439525
0.33437535 -0.32979932 0.31145957 -0.030781537 -0.3365668 0.014394999 0.19205943 -0.116858244
0.13757077 0.3079814 0.24349543 -0.23209725 0.001654774 -0.13351771 -0.16428837 0.1183427
0.17741057 -0.0078013837 -0.2940734 0.08128935 -0.10196632 0.11958435 0.31052193 0.08207804
-0.26415297 -0.31738573 -0.087439656 0.28715774 0.31083152 -0.25361285 0.025738329 -0.039219946
-0.27055216 -0.23830022 0.08522317 -0.025252163 0.21512541 0.020859748 0.1594176 -0.2976324
-0.28258255 0.2413607 0.055413246 -0.017038375 -0.041927516 0.24605289 0.038098067 -0.33834144
-0.2792188 -0.1119017 0.2172046 -0.13461126 0.13241768 -0.2942343 0.24226913 0.3012496
0.3250263 0.10612613 0.28353772 0.037109196 0.022399664 0.021012008 0.055315077 -0.2129834
0.28305408 0.09772068 0.167371 0.03541845 0.18396929 -0.12777449 -0.24603978 -0.24947625
0.2152997 0.047792077 0.03491226 0.17216876 0.011855543 -0.24221537 0.329146 0.22039822
-0.264688 0.061095476 -0.34246123 -0.16792257 0.18230101 -0.129863 -0.30440408 -0.28202707
0.35011783 -0.3094373 -0.0043023825 0.196718 -0.2689128 0.3093969 0.15029374 -0.13336578
0.14651176 0.050596744 0.28722188 -0.28566155 -0.027747363 -0.029253662 -0.29306698 0.16794494
-0.23845468 0.12483299 -0.2888897 0.26750723 -0.2429133 -0.15630825 0.13021314 0.29075918
0.23710069 0.06745109 -0.115735665 -0.31158608 -0.3299804 0.18488255 -0.024666995 -0.049737066
0.23127154 0.056702554 -0.1297084 0.3293064 -0.013155788 -0.32194853 -0.25095278 0.115798175
-0.3057213 -0.042627335 0.17150131 -0.2880243 0.054251164 0.092882305 0.32344356 -0.020776302
-0.009518445 -0.20338096 0.28767076 -0.34211427 -0.024057508 -0.34757346 -0.02975598 -0.33132854
0.10718086 -0.26593527 -0.3293539 -0.15122984 0.052886754 -0.018812627 0.1914142 -0.21742518
0.0085841715 -0.010537386 -0.13294443 -0.26073593 0.099288374 0.105003 -0.23190351 0.034649223
-0.11409262 -0.115542546 0.21764341 -0.086447954 0.31272414 0.17011157 -0.17584145 -0.26010764
0.23492864 0.31402078 -0.18118024 -0.07482034 0.23985872 -0.031892657 -0.22213551 -0.07228753

fc1.bias f4 [512]
00000000: 8059 14be b61f 97be 7723 a4be b79b 863e
00000010: 3433 c8bd b0c2 a9bd 62a6 80be 6865 ce3d
00000020: 66ce 2e3e 0403 a3bd 4021 c8bc 2dd2 35be
00000030: 8f94 4cbe db47 853e 1801 72be 5963 9fbe
00000040: 1097 e13c 00c7 2a3d 8451 8bbd 08cb af3d
00000050: b03a a53c 807a 10be 2825 2fbd d8d8 93be
00000060: 124a a2be 794c 973e 1c09 73be 44a1 fb3d
00000070: cc39 96bd 908f 383d 4ac2 233e de46 69be
00000080: 5a8a 2ebe 0e7b 6b3e 133b 84be 0749 a03e
00000090: dd80 803e 0ea1 1f3e 4800 89be f023 1ebd
000000a0: e46b a53d 00d3 0bbc 8685 573e 17d3 a53e
000000b0: 8ebf 9fbe a83a 653d e8bc 59be 486f d7bd
000000c0: 1701 b23e d612 193e 8485 9ebe 3c8c dd3d
000000d0: 2a88 a3be 404e ab3d ec46 74be 1d25 853e
000000e0: d8c1 acbe 16bd 733e 96bc 733e 0ec6 3d3e
000000f0: 234e 4ebe 7713 2dbe 8069 163d a5b3 5ebe
00000100: 16d8 70be 8a39 193e 1407 f33d 58ea a4be
00000110: ae4e 613e d0d2 083e 50ca 1abd f2a4 61be
00000120: 7c85 84bd 3ae5 213e b484 7bbe 9669 5f3e
00000130: f097 223d 2662 533e 3bd1 a53e 5999 8bbe
00000140: 4dcf 59be bec5 683e 5c71 b8bd a6bc 7c3e
00000150: 4d1e 8bbe 62cd 453e 0f41 8ebe ff27 72be
00000160: c316 11be c2f3 4e3e d8e9 013d 8011 5cbb
00000170: c289 acbe db6c 9b3e 90f5 d73d 2607 023e
00000180: 5805 94bd b8fe aa3d d8d7 1dbd 133a 963e
00000190: e320 853e 8773 8f3e f9d5 813e ecae 813d
000001a0: d08b 9bbe 203b 2d3d ace1 b63d f8cb 31bd
000001b0: 1129 933e 3fa5 b0be e477 81be 4aae 6b3e
000001c0: abef 923e e939 aa3e 7e45 463e 1583 b23e
000001d0: 1428 e5bd 96e0 2c3e 35ca 27be 0703 b03e
000001e0: c636 413e 1aa8 413e 4fc4 8abe e080 ffbc
000001f0: 2ea1 5d3e a0ea 7bbc 9478 e13d ccce 35be
00000200: c43c b53d d9d8 a33e d8c0 36bd b6b0 f4bd
00000210: a3e2 03be fcfe d03d 4cab 9cbd ed79 8cbe
00000220: 810d 883e 7c8a 8fbe 8e21 423e 1c4c f73d
00000230: 9097 53bd 444e c9bd 3c96 98bd 2cb7 f23d
00000240: 60a1 2fbd a24a 74be 22f5 623e 230c 29be
00000250: 05de 05be e0da a33c b6fa 523e 3310 8b3e
00000260: 4592 b03e 2067 53bd 8229 9abe 9a1c 263e
00000270: fc60 a6be a4df c63d db26 9abe 498d 60be
00000280: 1c09 ec3d 13bf 943e 3ad4 523e 7c39 33be
00000290: c24a 93be ff3e a73e 96f6 213e 55f0 04be
000002a0: 64a2 e7bd d79c aa3e 38e0 9d3d 4a97 683e
000002b0: 3401 a7bd e0ac 9bbd 8281 7a3e 4ed1 5c3e
000002c0: 76fb 463e dc2b 46be dc2f c7bd 1b77 883e
000002d0: 40a9 d23b cfc9 953e 684e 7d3d f71e a5be
000002e0: 28bc e23d d863 913d af47 873e 0852 4a3d
000002f0: 8c65 99bd 31e9 a23e 7cda 843d 90aa f0bd
00000300: 4810 2e3d 04c1 8cbe 2224 0ebe b13a 24be
00000310: 3885 073d b0c6 f23c 57e3 a73e 86ef 98be
00000320: e80b dd3d 9734 4cbe d8e0 063e 402e 303c
00000330: 6de2 8c3e 50f4 d83d 827c 4cbe 8248 103e
00000340: 3910 963e 8009 fa3d 1cca c7bd 0f85 a03e
00000350: 9006 85be c684 383e 542d f7bd af68 40be
00000360: 0231 31be c281 87be 4ad7 89be 53ca 9abe
00000370: 2141 9b3e e0a3 10bd 72fb 6b3e 039b abbe
00000380: 1b16 a63e 5af5 1e3e a0cc eebd bc3b b7bd
00000390: 0a74 a5be 68fb 91be 617f a63e 48a5 73be
000003a0: 63bd 36be 6f77 953e 3fbb b33e 9e8d 72be
000003b0: ee17 6c3e e6a7 153e c059 7cbe 4038 25bc
000003c0: e6eb fabd 1016 683d 0265 a6be 0cb9 10be
000003d0: 5242 3cbe 6ecf 533e 4074 cb3c 4e3a 3bbe
000003e0: 5a43 793e 4858 f8bd a125 01be 0719 06be
000003f0: 68bc 433d d2ec 393e 7887 c2bd 3a37 403e
-0.14487267 -0.2951638 -0.32058308 0.26290676 -0.09775391 -0.08289087 -0.2512694 0.100779355
0.17070922 -0.079595596 -0.024429917 -0.17755957 -0.19978546 0.26031384 -0.2363323 -0.31130484
0.027537853 0.041693687 -0.06802657 0.08583647 0.020169586 -0.1410923 -0.042760044 -0.28876376
-0.31697136 0.29550532 -0.23733944 0.12286618 -0.07335243 0.045058787 0.15992084 -0.2278094
-0.17044964 0.2299616 -0.2582632 0.31305715 0.25098315 0.15588781 -0.26758027 -0.03860849
0.08077219 -0.008534193 0.21047029 0.3238761 -0.31200832 0.055964142 -0.21263468 -0.10519272
0.34766456 0.14948592 -0.3096124 0.10817763 -0.31939822 0.083645344 -0.2385518 0.26004878
-0.3374164 0.238026 0.23802409 0.18532583 -0.20146994 -0.16901956 0.036721706 -0.21748216
-0.2351993 0.14963356 0.118665844 -0.3221004 0.2200267 0.13361669 -0.037790596 -0.22035578
-0.064707726 0.15810099 -0.24562341 0.21817622 0.03969568 0.2064291 0.32386193 -0.27265432
-0.21270485 0.22731683 -0.090059966 0.24681339 -0.27171555 0.19316629 -0.2778401 -0.2364807
-0.14168839 0.20210174 0.03171715 -0.0033579767 -0.3369885 0.30356488 0.10544884 0.1269804
-0.07227582 0.08349365 -0.038535923 0.29341182 0.26001653 0.28017828 0.2535856 0.06332192
-0.30380106 0.042292714 0.08929762 -0.04340741 0.2874227 -0.34501073 -0.25286782 0.23015705
0.28698477 0.33247307 0.19362447 0.34865633 -0.11189285 0.16882548 -0.1638573 0.3437731
0.1886855 0.18911782 -0.27102897 -0.031189382 0.21643516 -0.015375763 0.110093266 -0.17754668
0.08849481 0.3200138 -0.044617504 -0.119477674 -0.12879424 0.102048844 -0.0764986 -0.27436772
0.26572803 -0.28035343 0.18958113 0.120750636 -0.051658213 -0.09829381 -0.0745053 0.118513435
-0.04287851 -0.23856595 0.22163823 -0.16508536 -0.13072975 0.020001829 0.20603451 0.27160797
0.34486595 -0.05161202 -0.30109793 0.16221848 -0.32495868 0.09710625 -0.3010777 -0.21928896
0.11525175 0.29052028 0.2058877 -0.17502397 -0.28767973 0.3266525 0.15816721 -0.12982304
-0.113102704 0.33322784 0.07708782 0.22713962 -0.08154526 -0.07601333 0.24463466 0.21564218
0.19431862 -0.19352669 -0.09725925 0.2665337 0.0064288676 0.2925553 0.061842352 -0.32250187
0.11071044 0.07099122 0.26421878 0.049394637 -0.07490072 0.31818536 0.06486985 -0.11751282
0.042495996 -0.2749101 -0.13880971 -0.16038014 0.03308603 0.029635757 0.32790634 -0.29870242
0.107932866 -0.19941936 0.13171709 0.010753214 0.275165 0.10593474 -0.19969371 0.1409016
0.29309252 0.12208843 -0.09755346 0.31351516 -0.2598157 0.18019399 -0.120691925 -0.18789934
-0.17303851 -0.26466185 -0.26922065 -0.30232486 0.30323127 -0.035312533 0.23045138 -0.33516702
0.3243874 0.15523282 -0.11660123 -0.0894694 -0.32315093 -0.2851212 0.32519057 -0.23793519
-0.17845683 0.29192683 0.35103795 -0.23686835 0.23056003 0.1461483 -0.24643612 -0.010084212
-0.12252025 0.056661665 -0.32498938 -0.1413309 -0.18384674 0.20684597 0.024835706 -0.1828396
0.24342099 -0.12126213 -0.1261201 -0.13095485 0.0477871 0.18156746 -0.09498495 0.18771067

fc2.weight f4 [256, 512]
00000000: 68d4 b13b ebe7 1a3d 5be6 143d 011b 0ebd
00000010: 8038 d03b effd cbbc 5031 e63b 43ad 1b3d
00000020: 24b9 553c 829b 00bd 58be 84bb 2669 fdbc
00000030: 06b7 0fbd 5c3e 033c 286c ae3b 0209 e53c
00000040: db95 133d cc8c 2a3c f6df a9bc f405 eabc
00000050: b737 0a3d ac60 143c 1086 79bb 8463 12bc
00000060: 0077 553c 0087 cc3b 66e4 a93c 2808 bbbc
00000070: c021 4d3a ac68 14bd 0021 323a 1cc2 5d3c
00000080: 924c 16bd 0b3b 093d 795b 243d 780a d23b
00000090: 16b3 b9bc ceff cb3c 31b4 a6bc 3b43 2f3d
000000a0: 8a1b fdbc 0833 283c daa1 2abd b884 0fbd
000000b0: 0938 0b3d 00d5 173a 8a67 f03c b052 3d3c
000000c0: 40a0 76ba 70cd c8bb dd5b a3bc d95d 24bd
000000d0: 444f 22bd 1983 053d e063 56bb a041 0c3c
000000e0: c55f 173d dc17 463c 3ff2 083d 806f 1cbd
000000f0: e0ea 6b3b 02ff 833c d03d fdbb ab30 033d
00000100: 3b65 04bd e0f4 9bbb 3946 ecbc b95d 03bd
00000110: 3550 273d 6818 bbbb 34d4 17bc ba69 903c
00000120: 2067 fb3a 58a7 e3bb 956d 18bd 49b9 123d
00000130: 4582 04bd 000c 64bb 50d8 fabc 2c44 20bc
00000140: 2084 6a3b 8531 dbbc aa1e b93c 603a e2bc
00000150: 00e8 64bb 003f a4bb 6c31 603c f45b 2ebc
00000160: 0020 7c3a bcf0 593c 843a 09bd b20e d2bc
00000170: 8d5b 253d b6c1 afbc 96f6 dd3c 02fd 8d3c
00000180: d2e4 dcbc f2ae cf3c 3655 aebc 5ff9 193d
00000190: 4261 eebc 224a 05bd 247b 24bc 2af5 08bd
000001a0: 6450 13bd 6929 34bd f2f4 c2bc 5a65 c03c
000001b0: c1a8 1abd 9191 123d 860c bf3c 9ccf f5bc
000001c0: 5576 93bc 42db f33c d1c3 223d 3de7 1c3d
000001d0: 0030 44bc 4d06 1ebd ee4b c5bc ac5d 413c
000001e0: 6cf3 f0bc 53b1 273d 749b 683c d1d0 22bd
000001f0: bad2 ffbc e9be 07bd 5d70 173d 0afd d23c
00000200: 62ae f23c ff84 c3bc ccc3 11bc 505b 0fbc
00000210: dc6a 14bc c35f aebc 0e16 d13c 7e3a 16bd
00000220: a0ac 2bbd a06b 1dbb 782a 05bd cd67 143d
00000230: f274 c0bc 2098 da3b a88c 943b 80a9 d1b9
00000240: 34f7 d4bc 3838 d43b 5860 14bc 793d 1ebd
00000250: 2cc6 153c 201b fabc 2845 edbc 20aa 57bc
00000260: 6856 993b 5e50 fabc 5431 0fbd 980f 1abc
00000270: eb9f 1d3d d8d5 9a3b 21b7 89bc ae5f 22bd
00000280: 7988 253d e7cb 213d db3f 12bd 2fe6 133d
00000290: a807 c83b 10bc 29bc a477 15bc 238c 323d
000002a0: 0839 2d3c a098 cd3a 8734 bfbc ee88 9dbc
000002b0: 426f eb3c 6057 1cbd 2fa1 cfbc 4422 4e3c
000002c0: 00de b93b 161a 65bc a04f 903b 70f0 34bc
000002d0: 8817 033c 4807 923b 68f6 ff3b 0a2c c53c
000002e0: 9682 8d3c cfef b1bc 83a5 c9bc 7077 843b
000002f0: 1171 2b3d 8eaa 23bd aa9f ebbc 5841 4ebc
00000300: 7ab2 70bc 2706 153d 62eb edbc 1aa0 cd3c
00000310: 05ed 8ebc 64f7 4dbc d010 653b 9271 eb3c
00000320: d715 19bd 2211 2ebd 15be 273d e4b6 3bbc
00000330: 717c 023d 28b2 4dbc 3885 423c 24c3 67bc
00000340: 9fc1 25bd 2e7d a6bc 0296 fc3c 80f5 4b3c
00000350: ada4 abbc d8cc 9bbb 42c5 c73c 604e 5cbc
00000360: 4992 2ebd e629 b43c 53e9 f8bc c530 d2bc
00000370: 5014 b6bb 2726 243d 885c ecbb f0d8 b3bc
00000380: e0d1 18bd 1617 b33c fb44 b6bc dee9 cc3c
00000390: 224b fd3c b9d8 0d3d 280a 72bc 80f4 fd3a
000003a0: f1e8 063d 8077 89b9 a19d 0abd 4b77 323d
000003b0: 0e78 a13c df1d 063d fc02 04bd c0f2 243b
000003c0: c0dd 9aba 77fa 123d 80b0 a6b9 fb43 18bd
000003d0: 0d84 0e3d 6219 04bd d045 43bc 70c4 13bb
000003e0: f0c3 09bc adcc 0fbd 3cc8 1abd 7242 a2bc
000003f0: 7a0e b73c acf7 f2bc f4e9 7a3c 6912 1abd
0.005426932 0.03781883 0.036352497 -0.03469372 0.0063543916 -0.024901358 0.0070249215 0.038007032
0.013044629 -0.031398304 -0.004051011 -0.030933928 -0.035086654 0.008010473 0.005322952 0.027958397
0.036031585 0.010409545 -0.020736676 -0.028567292 0.03374454 0.0090562515 -0.0038074292 -0.008934859
0.01302886 0.006241679 0.020738792 -0.022831038 0.00078251585 -0.036232635 0.00067950785 0.013535049
-0.036694117 0.033503573 0.040126298 0.0064099394 -0.022668403 0.02490225 -0.020349594 0.042788725
-0.03089692 0.010266073 -0.04165826 -0.03503868 0.033988986 0.00057919323 0.029346246 0.011555359
-0.00094080344 -0.0061280057 -0.019941265 -0.040128563 -0.039626375 0.032595728 -0.0032713339 0.008560568
0.036956567 0.012090649 0.03343415 -0.038192272 0.003599815 0.016112808 -0.007728316 0.032028835
-0.032323103 -0.004759416 -0.028842079 -0.032071803 0.040847976 -0.0057096966 -0.009266902 0.01762854
0.0019180514 -0.006947439 -0.03721388 0.035821233 -0.032350797 -0.0034797192 -0.030620724 -0.009781878
0.003578432 -0.026757011 0.02259763 -0.027615726 -0.0034928322 -0.005012393 0.013683658 -0.0106420405
0.00096178055 0.013302024 -0.03350307 -0.025641773 0.040370513 -0.021454673 0.02709512 0.017332558
-0.026964579 0.025351975 -0.021280866 0.037591334 -0.02909911 -0.0325414 -0.010039125 -0.03343693
-0.03596534 -0.043984804 -0.02379844 0.023485828 -0.037758593 0.035783354 0.023321401 -0.030006222
-0.018000761 0.029767636 0.039737526 0.038306464 -0.011974335 -0.038580228 -0.024084058 0.011802118
-0.029412948 0.040940594 0.014197219 -0.039749924 -0.031228412 -0.03314105 0.036972392 0.025755424
0.029624168 -0.023867128 -0.008896779 -0.008749798 -0.00905868 -0.021285897 0.025523212 -0.036676876
-0.041912675 -0.0024020448 -0.032511204 0.036231805 -0.023493264 0.0066709667 0.004533369 -0.00039989874
-0.025996782 0.0064764284 -0.009056173 -0.038632844 0.009141486 -0.030530512 -0.02896364 -0.01316312
0.00467949 -0.0305559 -0.034959152 -0.009403132 0.038482588 0.004725199 -0.016810955 -0.03964203
0.040413354 0.039501097 -0.03570543 0.036108192 0.0061044283 -0.010359779 -0.009122763 0.043590676
0.010572679 0.0015685745 -0.023340477 -0.019230332 0.028739575 -0.038169265 -0.025345413 0.012581412
0.0056722164 -0.01398327 0.0044040233 -0.011043653 0.008001216 0.0044564344 0.0078113563 0.024068851
0.017274182 -0.021720795 -0.024615055 0.0040425584 0.041855875 -0.039957576 -0.028762657 -0.012588821
-0.01469099 0.03638282 -0.029042903 0.025100756 -0.017447004 -0.01257119 0.0034952648 0.028740678
-0.037374344 -0.042496808 0.04095276 -0.011457179 0.031856958 -0.012554683 0.011872582 -0.014145646
-0.040467855 -0.020323362 0.030833248 0.0124486685 -0.020952547 -0.004754644 0.024386052 -0.01344642
-0.042619977 0.021992635 -0.030384695 -0.02565802 -0.0055566207 0.040075447 -0.007213179 -0.02195403
-0.037309527 0.021861594 -0.02224969 0.02501386 0.030919615 0.03463051 -0.014772929 0.0019375235
0.032936994 -0.0002621971 -0.033841733 0.043570798 0.019710567 0.03274333 -0.03222941 0.0025169104
-0.0011815354 0.035883393 -0.0003179349 -0.037174206 0.034793902 -0.03225077 -0.0119185 -0.0022547506
-0.008408532 -0.035107303 -0.037788615 -0.019807074 0.02234577 -0.029659115 0.015314568 -0.037615214

fc2.bias f4 [256]
00000000: 1e58 ee3c 102e 80bc 903a ef3b 44e8 0b3c
00000010: 8d35 89bc fcc0 0fbd a361 8bbc 27e7 303d
00000020: 99ec 163d 409d daba 4f7e 2d3d 0e0f 9a3c
00000030: f435 923c c8a9 a0bc 45a0 153d 4e2c c8bc
00000040: a253 21bd a073 b53b a62a e43c edcd 273d
00000050: 9ae8 0fbd c0d6 c3ba a285 ab3c cc36 58bc
00000060: d075 803c efe0 fbbc 19d1 2dbd f6fe a03c
00000070: e624 da3c e0dd 943b 900c 863b 01cf 333d
00000080: 7ca8 503c c589 1fbd 829b 0bbd 1937 f0bc
00000090: 50f5 33bc 603e 12bd b148 123d 9aad e13c
000000a0: 84e2 6b3c 08b3 34bd 7a82 ff3c 50ee b43b
000000b0: 62d8 b1bc 0d49 2ebd b6d6 e93c e870 bbbc
000000c0: e666 963c 3096 213c ffd0 233d 90f5 21bd
000000d0: 113b 053d 242a 41bc 339c 0fbd 8683 a2bc
000000e0: 6847 1bbc 1c2f 64bc 80c9 beb9 80ff acba
000000f0: 39ef 0a3d b07c 54bc d8fb 84bc 1c6d 3abc
00000100: 6c65 4e3c 2033 3b3c e8ec debc 2e25 bbbc
00000110: 2182 153d d0a0 eebb 264e 9c3c 3266 f1bc
00000120: faa8 8b3c 2082 10bd 50d1 b3bc 00a2 91ba
00000130: 143c 4fbc 6078 36bb d367 e1bc b55a 313d
00000140: ad59 29bd 6799 2a3d fe67 f23c f979 afbc
00000150: 8a88 cd3c 40c7 37bb 3090 ae3b 466d b53c
00000160: e0c8 aebb 9d7c 90bc 6a8d 2cbd 1812 1cbc
00000170: 9778 f9bc 43e9 023d f73d cfbc 7f75 033d
00000180: f0ae 153b 7c8d 4cbc 4efe 2abd f2db b83c
00000190: ff37 93bc 80e9 b0ba 37bd 87bc b13e 253d
000001a0: 7eab e13c 724c 13bd c6a6 813c d645 f83c
000001b0: 75b3 debc 6627 d83c 13fd 233d eeb2 0cbd
000001c0: 77cc 2e3d 54e4 0dbd d3c6 b2bc c6c2 9c3c
000001d0: 12e0 de3c 7b8d 2d3d c613 70bc 4d04 19bd
000001e0: 0ffc 26bd a8be 2d3c 0390 113d b9c5 20bd
000001f0: 9345 fcbc 74e8 99bc 34be acbc a47d 7c3c
00000200: f196 17bd 8a92 84bc b97c 2a3d e809 c6bb
00000210: a2d7 00bd f1a8 0f3d a218 ff3c 5ef1 e93c
00000220: 304c 5f3c e2bb bfbc 7934 2abd bac6 1cbd
00000230: 4019 d03b 6bf2 233d 789d 93bb e862 e93b
00000240: f4c5 7c3c f886 c43b 7a43 aabc 4de5 a0bc
00000250: f0a0 493c e1ba 99bc 305d 0b3b 5816 97bc
00000260: 5603 ddbc a41c 8b3c 5c8a 3fbc 5f11 dcbc
00000270: e3e6 013d c61d f83c 38e4 8d3b d80d 26bc
00000280: 2819 32bd e90a d8bc 55f0 2a3d 0042 54ba
00000290: 401d f1bb b4b4 083c 7a4c 22bd f048 f03b
000002a0: 9457 613c e0df 32bd a3ae 29bd 380e 0abc
000002b0: 04d2 37bc e043 05bd 5dbb 323d 294f ecbc
000002c0: 308f d9bc 5209 eb3c d0bf 4d3c 05b9 e5bc
000002d0: 15e7 333d 98a2 c03b 8a4b ce3c 38bb 76bc
000002e0: 4803 12bc 8d98 0bbd 33ca 9cbc 0074 24bd
000002f0: db59 0d3d 4058 43ba a0b5 a43a c8a4 ce3b
00000300: 1b5c 193d 5897 323c 361d c53c be95 b9bc
00000310: 9ed6 cd3c ab1f 1a3d 50a5 973b 813c 123d
00000320: 700e 77bb 08cf febb c869 d4bc aa04 f33c
00000330: 4cd1 363c 78ce 08bc 36e5 8e3c 9f0b c0bc
00000340: 3c94 0abc 42ab 9f3c 48e6 22bd 7ae2 bb3c
00000350: b00a d63b b927 aebc f0fa d53b dc6c 23bc
00000360: cc0d 8bbc 3e61 f33c e167 e5bc 201d 343b
00000370: 80e9 813b 843b 393c 3c35 14bd 38d2 153c
00000380: 4eae ed3c 0a98 03bd e88c 69bc 9caf 33bd
00000390: 3978 283d 9a98 03bd 00fb 91bc a271 f13c
000003a0: 602a 743c 3088 38bb dc23 083c ec7a 613c
000003b0: 7efa c73c da21 32bd e0da 5e3b 4aee cc3c
000003c0: e500 303d 0641 d0bc 44da 3a3c d2c1 da3c
000003d0: 3a5d aa3c 083a c83b d666 cc3c 6c15 1d3c
000003e0: c0be 243c e038 32bc 6f51 323d 34a4 913c
000003f0: 009a dabc b8bc 553c 6b32 1abd 1075 2dbd
0.029094752 -0.015646964 0.0073006824 0.008539263 -0.016749168 -0.035096154 -0.01701433 0.043189194
0.03684673 -0.0016678944 0.042356785 0.018806007 0.017847992 -0.019612208 0.036529798 -0.024435189
-0.0393864 0.005537465 0.027852368 0.04096787 -0.035133936 -0.001494132 0.020937745 -0.013196658
0.015681177 -0.030746905 -0.04243574 0.019652825 0.026628923 0.004543051 0.004090853 0.043898586
0.012735482 -0.038949747 -0.03408385 -0.029323148 -0.01098378 -0.035704017 0.035713855 0.0275486
0.014397267 -0.04411605 0.031190146 0.005521573 -0.021709625 -0.042550135 0.028544765 -0.022880986
0.018359613 0.009862468 0.039994236 -0.039540827 0.032527033 -0.011789832 -0.035061073 -0.019838106
-0.009477474 -0.013927247 -0.00036389753 -0.0013198704 0.033919547 -0.012969181 -0.01623337 -0.011378553
0.012597423 0.011425763 -0.027212575 -0.022844877 0.036501054 -0.007282354 0.019080233 -0.029467676
0.017048348 -0.035280347 -0.021950394 -0.0011110902 -0.012648601 -0.0027842745 -0.027515328 0.043299396
-0.041345287 0.041650202 0.029590603 -0.021420466 0.025089521 -0.0028042346 0.005327247 0.022146832
-0.0053340048 -0.017637545 -0.04212705 -0.009525798 -0.03045301 0.031960737 -0.025298102 0.032094475
0.0022839867 -0.012484904 -0.04174643 0.022565816 -0.017971037 -0.0013497323 -0.016569717 0.04034299
0.027547594 -0.035961576 0.015826594 0.030306738 -0.027185181 0.026385974 0.040036272 -0.03435033
0.04267546 -0.03464158 -0.021823322 0.019135844 0.027206454 0.042371254 -0.014653152 -0.037357617
-0.040767726 0.010604538 0.03553773 -0.039251063 -0.030794894 -0.0187876 -0.02108679 0.015410814
-0.037009183 -0.016183157 0.04162285 -0.0060436614 -0.031455643 0.035073224 0.031139676 0.028557476
0.013629004 -0.02340502 -0.041553948 -0.038275458 0.0063506663 0.04002611 -0.0045048557 0.0071223862
0.015428055 0.005997535 -0.020784128 -0.01964059 0.012306437 -0.018765869 0.002126526 -0.018443272
-0.02697913 0.01698143 -0.011690702 -0.026863752 0.03171433 0.030287635 0.0043301843 -0.010135137
-0.043481022 -0.02637239 0.041733105 -0.0008096993 -0.007358223 0.008343864 -0.039623715 0.0073329136
0.01375379 -0.043670535 -0.041426312 -0.008426242 -0.011219505 -0.032535434 0.043635715 -0.02884634
-0.026557535 0.028690968 0.012557939 -0.028042326 0.04392155 0.0058787577 0.025182504 -0.015059285
-0.008911915 -0.03408103 -0.019139385 -0.04014969 0.03450952 -0.000745181 0.0012566335 0.0063062645
0.037441354 0.010900341 0.02406178 -0.02265441 0.025126752 0.037627857 0.004627861 0.035702232
-0.0037697814 -0.007776145 -0.025929347 0.02966531 0.011158299 -0.008350007 0.01744328 -0.023443041
-0.008458193 0.019490842 -0.039770395 0.02293514 0.006532036 -0.021259176 0.006530158 -0.009974685
-0.016974352 0.029709455 -0.028003635 0.002748318 0.003964603 0.011305694 -0.03618358 0.009144358
0.029013779 -0.032127418 -0.014254786 -0.043868646 0.04113028 -0.032127954 -0.017819881 0.02947313
0.014902681 -0.0028157346 0.008309331 0.013762217 0.024411436 -0.043489315 0.0034004971 0.025015969
0.042969603 -0.02542163 0.011404578 0.026703749 0.020796407 0.0061104335 0.02495138 0.009587627
0.010055244 -0.010877818 0.043534692 0.017778493 -0.026684761 0.013045482 -0.03764574 -0.042347968

fc3.weight f4 [128, 256]
00000000: 421a 0b3d 707e 4f3d 785e 62bc 7a68 07bd
00000010: 48cf 1f3c e8e0 563c 54d4 61bd 78d6 c2bc
00000020: 706d e4bc b862 4cbd 9c6e 633d f013 eabb
00000030: 583b 1dbc 02f1 3dbd 80f8 faba 34cf 233d
00000040: 2ee1 433d f2f9 2f3d 2434 58bd 0019 90b9
00000050: c83d 723d 4222 2d3d c832 31bd 7838 62bd
00000060: be1f 1b3d d4a6 8f3c 88d8 15bd a833 323d
00000070: 6cc7 073d 206f 913c 5cb3 7a3d b896 20bd
00000080: fea1 69bd 7c45 023d 0646 163d 68d2 983c
00000090: b0e1 9fbb 2c43 21bd b242 153d 00b0 15ba
000000a0: 88f4 0f3d 466f 21bd 540a f0bc e442 3bbd
000000b0: dee4 6bbd 3c75 e6bc 7804 44bd 1c88 63bd
000000c0: a4c3 e93c f00c c7bc c030 603d 80b4 6c3c
000000d0: a0ec 9dbc 524c 22bd d8c5 3b3c 4423 a93c
000000e0: 588b c8bc 8034 71ba 5cda 0cbd 9a76 5c3d
000000f0: e4bc bcbc c848 1dbc 766e 7dbd b095 573d
00000100: 0032 ffb9 608b 3f3d f89a 543c 14c1 3f3d
00000110: 7a7c 703d e44b 88bc 6c0b dabc e023 853c
00000120: f898 7e3d 5438 d53c 7045 b3bb c8f3 8e3c
00000130: ac1a 5c3d 648e 8a3c acf3 51bd e2af 35bd
00000140: c0f8 c6ba 809b 313b 500e 403d 1683 093d
00000150: 701b 763d f6d7 2abd 4a6b 3fbd 0410 2abd
00000160: d22b 3cbd 4076 e53c 28be 15bc 8642 073d
00000170: 9cc5 cd3c fc32 193d d810 fdbc cc0c 333d
00000180: 3414 6cbd 206e 67bc 2e1f 7e3d e0f8 903b
00000190: 3496 ecbc c02d b03a 6042 ab3c 10b8 89bb
000001a0: a0bb 43bb 34e3 e63c 8211 6abd 00d7 71bd
000001b0: 302d fb3b 5ccd e23c 2094 64bd eacd 3a3d
000001c0: ac89 6c3d 3064 763d bce6 74bd e0d5 9abb
000001d0: f0af 963b 2a94 2d3d 72d4 6a3d e817 5f3c
000001e0: 5a4a 513d 50ef c6bc 9836 3b3d 1a0f 5c3d
000001f0: b438 233d 5609 01bd e828 ec3c ec5c a83c
00000200: f6fb 0ebd a43d 43bd be34 1c3d 64c2 fc3c
00000210: 784f 5bbc 6c76 ddbc e48a 1fbd 2427 fabc
00000220: d831 6bbd f4be 283d 9071 4dbd 2003 5f3c
00000230: a065 f7bc c8de 7b3c a087 793c 18a2 6fbc
00000240: 801a 3e3d 9855 d03c 4290 653d 00ae 213c
00000250: ecb0 fcbc 68cd b5bc 68b4 333d 6812 503c
00000260: 40c6 043b 905d 17bd f03a 483d 9069 273c
00000270: 3044 e8bc a22d 11bd 58cc c3bc fc21 1e3d
00000280: 9078 6e3d 7459 353d e837 3fbd 2cc0 24bd
00000290: e0d6 b53b d490 c1bc 0448 e4bc fced 793d
000002a0: e6f8 4e3d acd5 9c3c 0cf2 05bd b82b 5b3c
000002b0: f069 b03b 721f 0bbd 6451 a4bc 6ab1 683d
000002c0: 4863 413c b64d 4dbd 40af 1c3d f6ec 433d
000002d0: 3c4e 8fbc 9867 6dbd dc20 99bc e04c d9bb
000002e0: b8d6 3abd 28d1 f93c 78bf fdbc f819 efbc
000002f0: 3480 b03c b468 e23c 80c1 3b3b b8cc 39bd
00000300: 4827 c3bc b2e8 44bd d891 93bc bc78 07bd
00000310: 2c08 7d3d 4632 2dbd 34c9 df3c 225c 43bd
00000320: 26dc 0f3d 188a 333c 3c34 053d 2895 adbc
00000330: 609f ef3c 58a2 903c 8af4 3bbd fc7e b33c
00000340: 68d0 ecbc 707e 89bb c27e 0b3d 58f2 2abd
00000350: b428 903c 7a5b 2fbd bc9a ebbc 8cb2 89bc
00000360: 7e86 4bbd 30d4 06bc 3c3b ed3c f825 663c
00000370: b491 b63c 58ab 97bc 78eb c33c 1ee7 7bbd
00000380: 9070 f03b 60b6 7abb 0013 37ba 7011 0f3d
00000390: 70c6 d0bc 72a8 363d d097 1cbd 4277 69bd
000003a0: f0be 9dbb 2ce6 75bd 28e9 553d a6a9 033d
000003b0: 801c 743c b2b2 323d 7840 f63c d2fc 113d
000003c0: b0d1 cdbb c4cd 18bd b4ae 243d de7a 143d
000003d0: 20c2 533d 54b0 86bc e8b9 f53c 3c76 403d
000003e0: 7891 893c f0d2 d73c 4405 4d3d 5883 103c
000003f0: 6443 dabc b2b4 4b3d c019 713d 702c 13bd
0.03396059 0.05065769 -0.013816468 -0.03305862 0.00975401 0.013115145 -0.055134133 -0.023783907
-0.027884215 -0.049898833 0.055525407 -0.00714349 -0.009596668 -0.04637242 -0.0019147545 0.039992526
0.04782217 0.042962976 -0.0527841 -0.00027484447 0.05914095 0.042269 -0.04326132 -0.055229634
0.03787207 0.017535605 -0.036583453 0.043506294 0.033149168 0.017753184 0.061206207 -0.039206237
-0.057039253 0.031804547 0.036687873 0.018655017 -0.004879199 -0.0393707 0.03644056 -0.0005710125
0.035145313 -0.03941276 -0.0293018 -0.04571809 -0.05759131 -0.028132074 -0.047855824 -0.055549726
0.028535672 -0.024298161 0.05473399 0.014447331 -0.01927787 -0.039623566 0.011460744 0.020646699
-0.024480507 -0.00092012435 -0.03438793 0.053824045 -0.023039289 -0.009599872 -0.061872922 0.052632987
-0.00048674643 0.046763778 0.012976401 0.046814993 0.05871246 -0.01663775 -0.026616774 0.016252458
0.0621576 0.026027836 -0.005470924 0.017450228 0.053736374 0.0169136 -0.051257774 -0.044357188
-0.0015180334 0.0027100742 0.04688865 0.03357228 0.06008476 -0.041709863 -0.04673318 -0.04151918
-0.045940228 0.028010488 -0.009139575 0.033022426 0.025118642 0.037402138 -0.03089182 0.043713376
-0.057636455 -0.014125377 0.062041454 0.0044241995 -0.028880216 0.0013441369 0.020905674 -0.00420285
-0.0029866472 0.02818451 -0.057145603 -0.05904293 0.007665299 0.027685814 -0.055805326 0.04560653
0.05774848 0.06015414 -0.059790358 -0.004725203 0.00459861 0.04237763 0.05733151 0.01361654
0.051096298 -0.024284035 0.04570636 0.05372534 0.039849 -0.031503044 0.0288281 0.020552121
-0.034908257 -0.047666207 0.038136236 0.030854411 -0.013385646 -0.027034007 -0.038950816 -0.030536242
-0.05742058 0.041197732 -0.05015713 0.013611585 -0.030199826 0.015372939 0.015230089 -0.0146260485
0.04641199 0.02543144 0.056045778 0.009868145 -0.030846082 -0.022192672 0.04387322 0.012699701
0.0020259768 -0.036954463 0.048884332 0.010218039 -0.028352827 -0.03544391 -0.02390115 0.03860663
0.058220446 0.044274762 -0.046684176 -0.040222332 0.0055492967 -0.02362863 -0.027866371 0.061017975
0.050530337 0.019144855 -0.032701537 0.013377123 0.0053837225 -0.033965535 -0.020058341 0.05680982
0.011803456 -0.05012294 0.03825307 0.047833405 -0.01749336 -0.057960123 -0.018692426 -0.0066314787
-0.045614928 0.030495241 -0.030975088 -0.029187188 0.021545507 0.027637817 0.002864927 -0.04536125
-0.023822442 -0.048073478 -0.01801388 -0.033074126 0.06177537 -0.042284273 0.02731762 -0.047695287
0.03512206 0.010958217 0.032520518 -0.021189287 0.0292508 0.017655537 -0.045887507 0.021911137
-0.02890797 -0.0041959807 0.034056433 -0.041735023 0.017597534 -0.04281185 -0.028760307 -0.01680877
-0.04968881 -0.0082293 0.02895891 0.014047138 0.022286274 -0.01851432 0.023915991 -0.061499707
0.0073376372 -0.0038255677 -0.0006983727 0.03492874 -0.025485247 0.044594236 -0.038230717 -0.0569985
-0.0048140213 -0.060033962 0.05222431 0.03214421 0.014899373 0.04362745 0.030060038 0.0356415
-0.0062811 -0.03730561 0.040205672 0.036249988 0.051698804 -0.016441502 0.029995874 0.046987757
0.016792998 0.0263457 0.05005385 0.008820377 -0.026643462 0.04973287 0.058862448 -0.03593105

fc3.bias f4 [128]
00000000: 00c3 d53b babc 583d 1428 0f3d a0fc b23c
00000010: c83e 16bd 92b9 523d b285 6c3d be0c 3cbd
00000020: 8085 77bc 0062 38bc 4837 013c f653 113d
00000030: e4d4 e13c 5021 1c3c a0bb ad3c 8431 fb3c
00000040: 6c81 adbc f868 81bc bc54 c2bc 00cb 723c
00000050: 20ab 6a3d 0a40 793d ac80 72bd 18cb f8bc
00000060: 48fc 4abd 4e73 21bd 08be ce3c c8da 793d
00000070: 0066 cc3a 969b 72bd 52e3 74bd 4009 283d
00000080: e659 4b3d c6fb 103d e0e3 a23c 4e5f 45bd
00000090: 4043 7c3c f838 3b3c b030 3f3c 08a6 e23c
000000a0: a0b1 8dbc f0db 6b3d f49e 9abc 4005 ccbb
000000b0: 9810 61bc 0080 4dbb e26e 0c3d 9034 db3b
000000c0: d0ea 04bd 2880 1abc 5e26 4cbd c0e9 0f3d
000000d0: 00d3 d239 0c2d 893c caae 14bd 8002 d0bc
000000e0: c872 33bd 2cce b1bc b073 dfbc 445c a5bc
000000f0: 0076 a739 081c 5d3d a4b3 8a3c aa38 14bd
00000100: b401 413d 7c5e d03c 785f 7a3c c0ad acbc
00000110: 6cb9 3abd b61b 5cbd 9490 c83c 484e 68bc
00000120: 142f 713d 9015 2dbc 30d4 543c b0c8 003d
00000130: 4a88 55bd a85e 16bd 602b d6bb 48b5 7e3d
00000140: 8e4f 0b3d feeb 39bd 00a2 34b9 402a ce3c
00000150: a675 243d 805b 95bc 3870 f63c 08c0 46bd
00000160: e8aa babc 4836 2f3d f89b 88bc 1c37 90bc
00000170: 3c90 92bc 58ef 443c ec51 dc3c 08aa 24bd
00000180: 9019 69bd 0061 96b9 c0f5 4c3b b6b4 753d
00000190: 504f 69bd dc3b b5bc 60a7 d43c 6088 1abc
000001a0: e06b 3b3b a0d5 bcbc 2415 69bd 7cb2 6abd
000001b0: a011 453c 60fa 6ebb f4eb 3d3d 4c7f 81bc
000001c0: aa61 61bd 783e 12bc 927d 07bd 0891 f33c
000001d0: 98f4 2b3c 8017 13bd 0e6e 4dbd 78dc e4bc
000001e0: 6a09 01bd ec84 64bd 101d f1bc 987d febc
000001f0: 2417 153d f493 2fbd e0e8 d3bb 1a4c 7a3d
0.00652349 0.05291436 0.03495033 0.021848977 -0.036680967 0.051446505 0.05774469 -0.04591059
-0.0151075125 -0.011253834 0.007886715 0.035480462 0.027567334 0.009529427 0.02120763 0.03066326
-0.021179877 -0.015797123 -0.023722045 0.014818907 0.057292104 0.060852088 -0.059204742 -0.03037028
-0.049557 -0.039416604 0.025237098 0.06099966 0.0015594363 -0.05923041 -0.059787102 0.041024446
0.04964628 0.03539636 0.01988405 -0.048186593 0.015396893 0.011427157 0.011669323 0.02766706
-0.017296612 0.057582796 -0.018874623 -0.006226212 -0.013736866 -0.0031356812 0.034285434 0.0066896155
-0.032450497 -0.009429969 -0.049841277 0.03513503 0.00040211529 0.016745113 -0.036299504 -0.025391817
-0.043810636 -0.021704756 -0.027276844 -0.020185597 0.0003194064 0.05398181 0.016931362 -0.03618685
0.047120765 0.025435679 0.015281551 -0.021078944 -0.04558699 -0.053737365 0.024483003 -0.01417882
0.058882788 -0.010564223 0.012990043 0.03144139 -0.05213193 -0.036711365 -0.0065359324 0.062184602
0.034011416 -0.045391075 -0.00017226487 0.02516663 0.04015126 -0.018232107 0.030082807 -0.04852298
-0.022786573 0.042776376 -0.016675934 -0.017604403 -0.017891042 0.012019955 0.026894532 -0.040201217
-0.056909144 -0.000286825 0.0031274408 0.059986793 -0.056960404 -0.02212327 0.025958717 -0.009431928
0.0028598234 -0.023051083 -0.056904927 -0.057299122 0.012028128 -0.0036465153 0.0463676 -0.01580777
-0.05502478 -0.0089260265 -0.033078738 0.029732242 0.010495327 -0.035911083 -0.050153784 -0.027937159
-0.03150312 -0.055790827 -0.029432803 -0.031065747 0.03639902 -0.04286571 -0.00646697 0.061107732

fc5.weight f4 [1, 128]
00000000: dc43 9abd d79c 813d 96f1 433d 1d3e abbd
00000010: 4443 19bd 400c b23b 6338 32bd 5659 adbd
00000020: e28e 6d3d 402e d43a e038 1ebd 0ce5 f63c
00000030: 61c8 aebd d946 25bd 30f4 99bc 80d4 0dbb
00000040: 391a a93d 00e2 18bc 8571 ae3d 2eca 753d
00000050: 1a31 283d 83e6 a43d 1b7b 9cbd 8abf 4d3d
00000060: 7102 a63d 363c f5bc 15ac a13d 674e a13d
00000070: 189f f1bc e494 ca3c 965d f3bc 6258 1c3d
00000080: f4a5 9e3c ec94 f63c 104d ed3c 9ce6 41bd
00000090: 775f 62bd e41c 9a3c 7acb 79bd cf76 8abd
000000a0: c4fa adbd d0c1 acbd acb0 d5bc 2e18 593d
000000b0: 4444 a5bd 1f21 a43d 980c b2bd 1a6c 56bd
000000c0: 6917 09bd da05 223d 3503 97bd 88eb 33bd
000000d0: b7b1 57bd d048 08bc 117a b1bd 2445 0f3d
000000e0: 58b4 283c a028 53bc b173 92bd d8c1 6f3c
000000f0: f8a1 90bd 1878 79bd 6229 81bd 50c2 563c
00000100: 2e31 95bd fae5 683d 1e6b 533d 2299 753d
00000110: 86b2 213d 9cfd 8b3c d536 a93d 40f9 103d
00000120: d658 6fbd 860d 4cbd 9aae 6a3d 3032 ca3b
00000130: 441d 20bd efdb 9c3d 4843 983c 66ab 283d
00000140: 91ac a03d 2820 ccbc ccbf f9bc 6097 263b
00000150: 08ed dc3c c0bd 9c3b 184f 0d3c 905d 003c
00000160: 70f9 51bd b5d7 b3bd b456 a13c 4e59 20bd
00000170: d804 6dbd a44c c9bc 206c a7bb 7811 e43c
00000180: 98e4 2bbc 126c 49bd 2079 36bb fc53 b53c
00000190: 00d7 5fbc d097 6d3c 2e88 2c3d c0c7 a53b
000001a0: 5f8a 11bd 257c a43d c028 ebbc 1096 04bd
000001b0: 70ee d0bc 7cd9 85bd 6025 79bd 40e9 f23b
000001c0: 1ef1 1a3d 0353 0ebd 8091 ca3b d62b 633d
000001d0: 8a8e 133d 61fa afbd c6a7 4a3d 689c 4c3c
000001e0: d2bb e8bc 4b9d 823d a456 f4bc 3d88 9abd
000001f0: 1669 5b3d 1475 a3bd 24ae aebc 8849 be3c
-0.075324744 0.06328743 0.047837816 -0.083614565 -0.037417665 0.005433589 -0.043510806 -0.08464305
0.05799759 0.00161881 -0.03862846 0.030138515 -0.08534313 -0.04035077 -0.018793195 -0.0021641552
0.08256955 -0.009331226 0.08517746 0.060007267 0.041062452 0.08051779 -0.07640668 0.050231494
0.081059344 -0.029935937 0.0789415 0.07876282 -0.029494807 0.0247292 -0.029707711 0.038170226
0.019366242 0.030100308 0.02896741 -0.047339067 -0.055266824 0.018812604 -0.060985066 -0.06760942
-0.08495095 -0.08435404 -0.02608522 0.053001575 -0.08069661 0.0801413 -0.08693808 -0.052349187
-0.03346959 0.03955636 -0.073736586 -0.043925792 -0.052659716 -0.008318141 -0.086658604 0.034978047
0.010296904 -0.012888104 -0.07150973 0.014633618 -0.07062143 -0.060905546 -0.06306721 0.013107851
-0.07284771 0.056859948 0.051615827 0.059960492 0.039476894 0.017088704 0.082624115 0.035393953
-0.05843433 -0.049817584 0.05729542 0.0061705336 -0.03909041 0.076591365 0.01858677 0.041179083
0.078454144 -0.024917677 -0.030486964 0.0025419816 0.026968494 0.004783362 0.008624814 0.007834807
-0.051263273 -0.08781377 0.019694664 -0.039147668 -0.057865947 -0.024572678 -0.005109325 0.027840361
-0.010491513 -0.04917533 -0.0027843192 0.022134773 -0.0136621 0.014501527 0.04212206 0.0050592124
-0.03553235 0.08031491 -0.028705955 -0.032369673 -0.02550432 -0.065356225 -0.06082666 0.0074130595
0.037827604 -0.034747135 0.0061818957 0.055461727 0.036024608 -0.08592678 0.049476407 0.012488462
-0.028409872 0.063776575 -0.02982647 -0.07545517 0.053567015 -0.07981315 -0.021323271 0.023228422
